data/NN_training/4x15_1.0E-03/model.pth (torch, 7181 bytes, 10 tensors)

net.fc0.weight f4 [15, 10]
00000000: eb85 8c3d 4646 b7be 67b6 b7be 76e2 65be
00000010: ee78 edbe ab2b e3be faf8 693e d535 b93c
00000020: c884 edbd 1e2e 37be 134c 5bbd 6766 dfbd
00000030: 7d01 92bd d284 2fbe b538 c63c 332e b2bd
00000040: 21e0 1f3e 810d 89be ea7b d33e 04d1 123e
00000050: 814f b43e e9c8 e03e f4ee a3bd caa7 f73d
00000060: e9e2 1d3d 0209 ae3e 5c6a 1f3e 0aa7 3e3f
00000070: df0a 123e cafd abbe 4d0e bf3d 8ae3 a9bd
00000080: 312c f3be 7d9c 293e a0fc 5e3d 0343 c6b9
00000090: a901 ef3e cb23 da3e f6f8 06bc 15cb b23e
000000a0: 10f2 9bbe d8b8 3d3e e6a5 9c3e 29d5 ccbd
000000b0: d810 db3a 0494 903e 7e7a 583e f1f2 053f
000000c0: 7961 3b3e 9cbc 183e 33f9 e3bd ddfa f2bc
000000d0: a3f9 21be 4721 d9bd 79dc 78bd b299 a6be
000000e0: d79d b53e 0b49 60bf 7009 203c c9ea c7bb
000000f0: 2e9a 04bf 60bc 573e 3f17 4f3f d301 30be
00000100: 0d56 a3be 3d35 443d da8a 58be 3e9a 51be
00000110: 58ff 4e3d 1eb0 86be 67ba 07be 2565 b03d
00000120: bd58 e93d cf76 3dbe 5a38 32be 3a20 23be
00000130: 3259 10bd 1aeb a43e db0c 8a3e 66c8 183d
00000140: 7162 383e ab4b babe 1e4e 643d c9fc 9abe
00000150: 1012 bb3e 5a15 893e 2dab 3e3e 780a d23c
00000160: ca05 fd3e cbe4 df3c bbdb 57be 5b5a 30be
00000170: 9401 09bf 1f7a 4e3d 2843 ca3e f549 04be
00000180: 66a4 0bbe fd08 2abe 078e 5d3d 8b1d d1be
00000190: 8781 5abe 7854 04bf 3da3 49be 704f 9a3e
000001a0: 018c 10be f468 14bf 8214 babd 501b 50be
000001b0: aaa2 ccbe 7fdd 9abe 7b38 e4bc f025 14bf
000001c0: 85fa 133f 0446 95be c8e1 6c3d 404d 67be
000001d0: 5615 8a3e 3b08 65bc 4cfc 1f3e 60a1 dd3c
000001e0: 8b7d d3bd f43c 083d 1ede 923d 40ae c83d
000001f0: 378c 94bd 186e 06bf be80 c43d 6bd4 d1bd
00000200: 798e 013f af55 82be fcfe 353c a6c8 a2be
00000210: dd20 4abe a40c 0d3f fe48 35bd 977f 4abd
00000220: a52f 883e d2d3 a43d d551 723e 4bc2 113f
00000230: 1a25 253d 4aae bfbe 0cb2 afbc d006 963d
00000240: 54db ae3e 6bc2 69be a9fd bfbd cccf bbbe
00000250: 4f8d bcbe ea05 a0be
0.0686148 -0.35795802 -0.3588135 -0.22449669 -0.46381325 -0.44369254 0.22848883 0.022608677
-0.11597592 -0.17888686 -0.053539347 -0.109082036 -0.0712919 -0.1714051 0.024196962 -0.08700218
0.15612842 -0.26768115 0.41305476 0.14337546 0.35216907 0.43903282 -0.08004561 0.1209255
0.038546477 0.33991247 0.15567917 0.7447363 0.1426196 -0.33592063 0.093288995 -0.08295353
-0.47494653 0.16563602 0.05444014 -0.0003781543 0.46680954 0.42605433 -0.008238068 0.34920564
-0.30458117 0.18527544 0.3059532 -0.100015946 0.0016713394 0.28237927 0.21140477 0.52323824
0.18298902 0.14915699 -0.11131515 -0.029660637 -0.15817885 -0.1060205 -0.060757134 -0.32539135
0.35471985 -0.87611455 0.009767875 -0.0061009866 -0.5179776 0.21067953 0.80894846 -0.17188196
-0.3190159 0.047902334 -0.21146718 -0.20468995 0.050536484 -0.26306242 -0.132547 0.08613042
0.113938786 -0.18502353 -0.17404309 -0.15930262 -0.035241313 0.32210618 0.26962933 0.03730049
0.18006302 -0.36385855 0.05573856 -0.30270985 0.36537218 0.26774102 0.18619986 0.025639758
0.4941848 0.027330777 -0.21079914 -0.17221968 -0.53518033 0.050409433 0.3950436 -0.12918837
-0.13636932 -0.16604991 0.054090526 -0.40842852 -0.21338473 -0.5169139 -0.19691177 0.3013873
-0.14115907 -0.57972646 -0.09085943 -0.20322919 -0.39967853 -0.30247113 -0.027858963 -0.5787039
0.5780414 -0.2915498 0.05783251 -0.22588062 0.26969403 -0.013979013 0.15623587 0.027054489
-0.1032668 0.033261254 0.07171272 0.097988605 -0.07253306 -0.5251174 0.09594868 -0.10245594
0.5060802 -0.25455996 0.011108156 -0.31793708 -0.19739099 0.55097413 -0.044259064 -0.049438085
0.2659885 0.08048214 0.23664029 0.5693709 0.040318586 -0.3743766 -0.021447204 0.07325518
0.3415171 -0.22828071 -0.09374554 -0.36681974 -0.3682656 -0.31254512

net.fc0.bias f4 [15]
00000000: 8b34 933d abe2 903d a160 0f3e 3bcf e53d
00000010: b07a 323e 6950 8d3d 4701 943e 00df 10be
00000020: ae74 273d 3fef 753d e727 223e 567a 4c3d
00000030: 372f d63d 152a 173e 8795 873e
0.07187756 0.070744835 0.14001705 0.11221167 0.17429614 0.06900103 0.28907225 -0.14147568
0.04088276 0.060042616 0.15835534 0.049921356 0.10458224 0.14762147 0.26481268

net.fc1.weight f4 [15, 15]
00000000: b2ee 07bf d69e edbd caa0 573e 51fa 8bbe
00000010: 7207 623c 9dab da3e d600 e93e 65ba 4b3e
00000020: 5753 143d 43e0 5d3d d70d fc3e 448c f43e
00000030: ce80 ea38 3040 733e 4e1f 933d 208c ca3c
00000040: 9a71 b0be a9cc 5ebb 47b9 77bd bf8e c2be
00000050: 8605 f1be 124c 9cbc 4948 30be d7d4 4dbf
00000060: e052 97bd 0ddf 29be 4476 673e 9c3d 0f3e
00000070: 31ed a7bd 7c31 80be 158f 7dbe 3c24 7bbe
00000080: 4b66 533e 1fce 4b3c 2cc9 83bd f4f7 a3be
00000090: f31d 34bd e030 39bf ae57 d0be 6306 c5bc
000000a0: a0c3 3abe b5be a33e d3ce 893e 2d94 143f
000000b0: 9843 cf3e 5183 c1be 84d1 23bd 1764 5cbe
000000c0: b77a cf3e c7de 873c 887c f7be f660 9abe
000000d0: 4aec ef3c 62d0 973e df31 a9be fa15 dbbd
000000e0: baa0 2ebe 39ef 06bf 60bd 3b3e 1155 06be
000000f0: 5b37 9e3e 0d49 ff3e 0bd1 0d3f a671 bd3d
00000100: 0389 36bc 30b3 3dbf f626 9b3e 95d1 3abf
00000110: f163 46bd 332b 963e 168c 06be 8668 2bbe
00000120: 351f fb3d 2966 e2bd d1c9 ecbd 44bd 52be
00000130: 70b8 fbbe 6af1 ffbc 14ff 87be 986e 013f
00000140: 9a0c 723d 1577 563d 273c 4abe a2b2 f03e
00000150: a64b f33b 2517 90be 47d1 26bf 0a31 a0be
00000160: d71d 023e 8f9d 10be 125b 953e e40a beba
00000170: 42b9 cfbe 20a4 b4bd 00a9 63be 5210 57be
00000180: 0690 453e 3f54 9bbd 4b75 a03e 4915 883e
00000190: 1d31 a5bd 3f30 c63d 65e1 d23e 2548 81be
000001a0: ca55 bb3e 0b4c 663d a775 233f a6bb 0c3d
000001b0: faec 673d 2515 87be 34de 963e 1bb1 ecbd
000001c0: 4830 f3be 7981 023d 9947 76bd 83f3 bb3e
000001d0: fd4c ce3c 8c55 ccbd 767c 163d 21e8 753e
000001e0: bb32 e03e bc6f aabd 8e84 71bd 7176 873e
000001f0: 7c45 d93e 12a5 143e 04b7 913e 027e a8be
00000200: 006c bc3d ae4f 863e 093b 933d a87d 05be
00000210: a30c 94be c5d1 10bd ee23 97bb 523d 8a3e
00000220: a0bd 493d 8481 e1be 63d8 6dbe 9068 d7bd
00000230: c394 503e a44c 9bbe 0ce9 983c e5cd 81bd
00000240: 409a 49bc 79bf 763e 4aa8 2bbe 04e1 f03d
00000250: a881 5dbe a3b6 993e c01f 973d dd91 85be
00000260: 9e52 8abe e74a 2bbd b3f1 4bbe 314a 9b3e
00000270: 524d 623c da23 6fbd 9d49 c73e 6e88 1d3e
00000280: cc11 153c 1678 4ebd a012 adbe c440 4ebe
00000290: 2548 253e 9a78 8bbe 4e15 bb3e 450c 22be
000002a0: 55f2 23be d4ea 86bd 2056 d03d 2d1f 9ebe
000002b0: e226 1d3e 38ed 403d b68b 843e 3747 47be
000002c0: 3d9b cc3e b2ec 68be 35ab 26be 5163 ba3d
000002d0: 7874 773e 8765 9f3c 2e94 30be d4fe 8abe
000002e0: eef1 9339 a7c5 98be 6f50 5dbc ab36 b6bb
000002f0: b7be c13c 0d22 ddbe 03ed 9c3d 900a b6be
00000300: 1557 073f 0976 c63e a412 ccbe 5e4c 9abe
00000310: 41ba da3e f88e 143e 4287 6fbe a6ea 673e
00000320: ac1b 393e 58e7 c4be 5f1d 163f d19f 6cbd
00000330: 35f8 733e 05f1 a9bd e3e4 ffbe 00e5 0b3e
00000340: c34b 493e 27d0 80be fd92 70bd 6d7b 09be
00000350: 3e3b 643e 4945 f33c 7e77 eebe 60b9 24be
00000360: 4caf f4be 6fae e73e 20e2 e83e 2c2a 1a3e
00000370: 16de 1d3e 143a c63e fdab 84bd 1aa7 a4be
00000380: 65ad 29be
-0.53098595 -0.11602561 0.2105743 -0.27339414 0.01379572 0.42709056 0.4550845 0.19895323
0.03621229 0.05416895 0.4922931 0.47763264 0.00011181981 0.23754954 0.07183705 0.02472502
-0.3446167 -0.0033996499 -0.06047943 -0.37999532 -0.47074527 -0.019079242 -0.17215075 -0.8040289
-0.07388854 -0.16588993 0.22603709 0.13988346 -0.081995375 -0.25037754 -0.24761613 -0.24525541
0.2064449 0.01243928 -0.06434855 -0.3202511 -0.043973874 -0.723402 -0.40691894 -0.024050897
-0.18238688 0.31981435 0.26915607 0.580386 0.40481257 -0.377955 -0.03999473 -0.21522556
0.40523311 0.01658572 -0.48337197 -0.301521 0.029287476 0.2965117 -0.3304586 -0.10697551
-0.170535 -0.52708775 0.1833396 -0.13118388 0.30901608 0.4986042 0.553971 0.09250192
-0.011141065 -0.74101543 0.30303162 -0.72976047 -0.048435155 0.29329833 -0.13139376 -0.16739091
0.12261812 -0.11054642 -0.11561931 -0.20580012 -0.49164152 -0.031243045 -0.26561797 0.5055938
0.05909405 0.05235966 -0.19749509 0.47011286 0.0074247895 -0.28142658 -0.6516308 -0.31287414
0.12706695 -0.14122604 0.29171044 -0.0014499095 -0.40571028 -0.08820367 -0.22232437 -0.2100232
0.19293222 -0.07584428 0.31339487 0.2657874 -0.08066008 0.09677171 0.41187587 -0.25250354
0.3658889 0.056224864 0.638514 0.034358643 0.056622483 -0.2638332 0.29466403 -0.11557218
-0.47497773 0.031861756 -0.060126875 0.36709222 0.025183195 -0.09977254 0.03673979 0.24014331
0.43788704 -0.08322093 -0.058964305 0.2645755 0.42435825 0.14516094 0.28459942 -0.32908636
0.09200287 0.26232666 0.071889944 -0.13036215 -0.2891589 -0.0353563 -0.0046124374 0.2699991
0.049253106 -0.44044125 -0.23227076 -0.105179906 0.20369248 -0.3033191 0.018665813 -0.063380994
-0.0123048425 0.24096479 -0.16763416 0.11761668 -0.21631491 0.30022153 0.07379103 -0.26087847
-0.27016157 -0.04181948 -0.1991642 0.3033004 0.01381238 -0.0583838 0.3892335 0.15384075
0.009098481 -0.05040749 -0.33803272 -0.20141894 0.16140802 -0.2724045 0.36539692 -0.15824993
-0.16010411 -0.06587759 0.10172677 -0.3088316 0.15346864 0.04710123 0.2588784 -0.1946076
0.39962187 -0.22746542 -0.16276248 0.09100974 0.24165523 0.019457592 -0.17244026 -0.27147543
0.00028218277 -0.29838297 -0.013507946 -0.005560716 0.02365051 -0.4319004 0.07662394 -0.35554934
0.5286725 0.3876193 -0.39857972 -0.3013639 0.42720225 0.14507663 -0.2339144 0.22648105
0.18076962 -0.3845775 0.58638567 -0.0577696 0.23825152 -0.08297924 -0.49979314 0.13661575
0.19657807 -0.25158808 -0.05873393 -0.1342599 0.22288224 0.029696124 -0.4657554 -0.1608634
-0.4778999 0.4525027 0.4548502 0.1505515 0.1541675 0.38716185 -0.06478117 -0.32158738
-0.16570051

net.fc1.bias f4 [15]
00000000: 1605 22bb dffa 69be e6bb 933e 3a56 c1bd
00000010: fc33 763e 456b 4c3e 655d 343e 0e47 583e
00000020: 69ea 643e 287f 3d3e e31f 25bd 0e07 113c
00000030: cc8c 0dbe 13a7 f23d dfa2 573d
-0.002472227 -0.22849606 0.28854293 -0.094402745 0.24043268 0.19962795 0.17613752 0.21120855
0.22355045 0.18505538 -0.040313613 0.00885178 -0.13823241 0.11848273 0.05264556

net.fc2.weight f4 [15, 15]
00000000: efcf b2be 1d81 5b3e 6a80 1dbd 9fa0 663e
00000010: 77b4 4cbd d93b 06be a75f 983e faa7 e53e
00000020: 5660 07be 58b0 03be 042a 84bd e145 cd3e
00000030: 24b2 2fbd 1e83 d73c 67c9 403d 9c1f 213e
00000040: 2af3 b8bd 8b82 263d 494b bd3e 50d4 bf3e
00000050: 877d 233c a42f 413c 20cc cf3e 8fdb 9a3e
00000060: 8414 21bd 0913 95be 4b60 67bd a1b4 18bb
00000070: f6db ea3e ef95 a0bd 9faa 36be 042c 80be
00000080: f2e7 8dbe d11a d03e fef0 933e c7dd 4b3e
00000090: ce80 b63e 3b04 efbd 4941 aebe 0664 2f3d
000000a0: 55dd eebd 0e74 51bd f368 b6be 7b60 2c3d
000000b0: b155 383e 2bfe 693d 2d6d 4dbe e011 923e
000000c0: 50d2 bfbe c317 df3d 4e1a 5b3e 490a 203c
000000d0: 4cf5 65bd 2ac6 613d c0a4 cb3d bcab 21bf
000000e0: 1fa4 8bbe 96cc 50bd b69f 9f3d 0fc0 233f
000000f0: 5bf7 11bf ddd2 b83c 7820 ddbd dbd8 edbe
00000100: 1d02 95bc df3f f8bd 6b40 d1be 29fe fc3d
00000110: 3c53 ff3d d6fb e63e 181c c73d d27d 443e
00000120: 2e97 71be f9bd 58bd 3186 8dbe 491e 753e
00000130: 30ca 003d b97b 95be 3b3e abbe 3acd a33e
00000140: a36d 99bd fc21 8b3e fee2 9c3d f9a3 123e
00000150: 3ef2 37be 165a 43be 8802 0c3e 33e8 b5be
00000160: b189 3c3e 9943 8dbd e7e6 91be 9a9d 28bf
00000170: 2943 933e 5986 933c 2ae2 0cbf 486f 9cbe
00000180: 5909 443d 96dd 9c3d 1c0a b23e 90fe 753e
00000190: a83d 9dbe 5c44 f5be bd96 f0be 45e4 d9be
000001a0: ac15 503e 9d2a 893c e375 b53e f091 63be
000001b0: 5656 5e3e 719a 0cbf 5ba2 66be f52e b7bd
000001c0: b69b 853e d542 083e f340 4e3e 7454 b33e
000001d0: 39d4 fc3e 9a44 8dbe 3bb1 013e 810f c4bd
000001e0: e304 08be 0659 acbe 414c 843e b06e 5ebe
000001f0: 3f82 e23d 1561 2a3f ed5d 76be 4884 283e
00000200: bc47 6c3e 80b5 84be 5cea abbd d3b8 403e
00000210: 29e2 383e aab4 13bd 6f34 013e 5baa cbbd
00000220: bff1 c2be e4d3 1dbe bc48 1f3b edf2 313e
00000230: a313 0dbf 7d2d 3dbd 16f7 353c a152 b9be
00000240: 618b 5f3c c45b 983e 03fd 03be 9fb7 fe3e
00000250: 816b 05bf e237 eebd 144b b3be 8eb4 83be
00000260: f2aa 793e b08d 303e 7a5e 673d f823 e2be
00000270: 3159 043e 958e e2be e8dd 233e c28a 07be
00000280: 95bf b8be 0e43 6dbe 2333 163f abeb 95be
00000290: b16a 0f3e 0cd7 403e ebc0 b4be 2998 633e
000002a0: 8461 2cbf f525 1e3e a095 173b 2c31 a1bc
000002b0: f7c1 9c3e cf42 06bf cb0f 7e3e 6914 20be
000002c0: 0f3b 333e d60f 2e3e 106d dabd a9c2 8c3e
000002d0: ef36 b53e 429a 953d 3a99 91be 27e9 8abe
000002e0: fb2b b6bd ed41 c2bd ae81 bb3e c547 66be
000002f0: 5474 2d3d ecda 25be fe10 42be 22a4 5bbe
00000300: d06a 83be 5ce6 a53d 05e7 89be 8b02 853e
00000310: 1f58 a2bd 6885 01be 3d78 bdbe 6f1d a9be
00000320: 9a28 093d f68e e6bc 080f c13d f3ef 9fbe
00000330: 2e5a 313e bfc5 a7be 668c b0bd 2c6b 583e
00000340: f57c ea3e e752 0ebe 34b0 bd3c bbf7 703e
00000350: 15e5 91be 79bf 83be 931f 02bd ba40 a7be
00000360: 3e06 d43b 4cdc 2e3f 086e da3d 2ad7 a0be
00000370: a0f4 e1bc 5fc5 8a3e 9179 bfbe bbdc 17bf
00000380: 1756 913d
-0.34924266 0.21435972 -0.038452543 0.2252221 -0.049976792 -0.13108768 0.29760477 0.44854718
-0.13220343 -0.12860239 -0.06453326 0.40092376 -0.042894498 0.026307639 0.047067072 0.15734714
-0.09030755 0.04065184 0.369715 0.3746667 0.0099786585 0.011791144 0.40585423 0.30245635
-0.039326206 -0.29116085 -0.056488317 -0.0023301023 0.45870942 -0.078410976 -0.17838524 -0.2503358
-0.27716023 0.4064546 0.288948 0.1990882 0.35645145 -0.11670729 -0.34034184 0.04282
-0.116633095 -0.05113607 -0.35626945 0.0420842 0.18001439 0.05712716 -0.20061179 0.28529263
-0.37465143 0.10893204 0.21396753 0.009768077 -0.056142136 0.055120625 0.09943533 -0.6315267
-0.27273652 -0.05097636 0.07794134 0.63964933 -0.5701806 0.022561485 -0.107972085 -0.4645451
-0.018189484 -0.121215574 -0.4086946 0.12353165 0.124670476 0.4511401 0.09722155 0.19188622
-0.23592827 -0.052915547 -0.27641442 0.23937334 0.03144282 -0.29195955 -0.33445916 0.31992513
-0.07491615 0.27174366 0.07660483 0.14320363 -0.17963502 -0.19077334 0.1367284 -0.35528716
0.184119 -0.06897659 -0.28496477 -0.6586548 0.28762177 0.018008398 -0.550326 -0.3055365
0.047860477 0.07659452 0.34773338 0.24022889 -0.30711102 -0.47903717 -0.46990004 -0.42556968
0.20320767 0.016743952 0.35441503 -0.2222364 0.21712622 -0.5492316 -0.22522871 -0.08944503
0.2609536 0.13306744 0.20141964 0.3502537 0.49380663 -0.275914 0.12665264 -0.0957327
-0.13283114 -0.3366167 0.25839427 -0.21721911 0.11059999 0.66554385 -0.24059267 0.16456711
0.2307424 -0.25919724 -0.0839431 0.18820505 0.18055023 -0.036060967 0.12617658 -0.09944602
-0.38075063 -0.15412861 0.0024304828 0.17377825 -0.5510809 -0.04618596 0.011106273 -0.36195853
0.01364407 0.29757512 -0.12889485 0.49749467 -0.5211716 -0.116317526 -0.35018218 -0.2572369
0.24381617 0.1724155 0.056486584 -0.44168067 0.12924649 -0.44249406 0.1600262 -0.13236526
-0.36083665 -0.2317011 0.5867178 -0.29281363 0.14005543 0.18832034 -0.35303435 0.22226013
-0.673363 0.15444167 0.0023129955 -0.019676767 0.30616733 -0.5244569 0.24810712 -0.15632786
0.17502998 0.16998228 -0.10665333 0.27492264 0.35393474 0.07304813 -0.28437215 -0.27131006
-0.08895107 -0.094852306 0.36622375 -0.22488315 0.042347267 -0.16196793 -0.18951795 -0.2144933
-0.2566743 0.08100578 -0.26934066 0.25978503 -0.07926964 -0.12648547 -0.37005797 -0.3303027
0.033485986 -0.028144341 0.09426695 -0.31237754 0.17319557 -0.32768056 -0.08620529 0.21134633
0.4579846 -0.13898812 0.02315531 0.23532002 -0.28495088 -0.2573202 -0.031768393 -0.3266657
0.0064704707 0.68304896 0.10665518 -0.31414157 -0.027582467 0.27103707 -0.37397435 -0.5932118
0.070964985

net.fc2.bias f4 [15]
00000000: a35b 833e db5c 053e 3f90 7cbe 0b2a 393e
00000010: d45c 633d 88b8 09be 5c64 703e 23d2 ca3d
00000020: 4b72 f63d 71ae 07be 26ee 8a3d 3d61 b03d
00000030: 4a87 463e fdbc 313d 31be fc3d
0.2565585 0.13023703 -0.246644 0.18082444 0.05550845 -0.134493 0.23475784 0.09903362
0.120335184 -0.13250138 0.067837045 0.08612297 0.19387546 0.043393124 0.12340964

net.fc3.weight f4 [15, 15]
00000000: 1f41 4fbe 556f 0bbe eba2 7f3d 23b1 bebe
00000010: e32c e23e 82aa be3b de07 1a3f d1d0 c4bd
00000020: 112c b5bd b3ba ff3e b2fd aa3d 869a e83e
00000030: 8a47 d63d 6c97 9dbe cad5 0b3e 556e 6d3e
00000040: 35ea 27be 0c97 aebe f2dd ad3e 2f82 ca3e
00000050: 3e67 55be ed4b cc3e 0afd 12bd 29d8 13be
00000060: b2ce 21be 8e57 cd3d 010b 973e 3f61 8abe
00000070: 5dc1 403d af67 55be 3a46 dabd 9277 ea3d
00000080: 060c 51be 0b1c 1f3e 6bb5 003e f89c 723c
00000090: 30ce 3bbe 7428 91be aaea a8bd 7fa9 3ebe
000000a0: 5041 b3bd 5415 773e 8acd 373d 6d71 0a3e
000000b0: 07c7 b2be 2a8a 953d 2499 743e 888a 91be
000000c0: 289b c4bb 1883 f73e f16d aa3e 25d2 d33e
000000d0: 7ca2 84be 07af c5be 6604 e1bd 2143 2e3e
000000e0: 1ff3 d8bd fa34 c63e e4c3 733b 2aa1 6d3d
000000f0: 2d44 b1bd 5e59 753e 9107 8e3e 1f87 503e
00000100: d024 513e 665f 1c3f 84b1 edbd e48e c83e
00000110: c7e2 aebe 4565 00be 09e5 8b3d 0a9b 0bbf
00000120: 2e1e c03e 0212 f9bd 3feb 7a3e a3c9 91be
00000130: 3e90 153e df53 a1be 090d 9c3e d6e8 48be
00000140: befa 98be 8c1b e4bb 25c9 0ebd cabc 7e3e
00000150: 62f5 a3be 22bd acbe b9cb 013d 9ec7 da3e
00000160: 39e3 f63e d84e 96be 4745 913d 135e 933d
00000170: 79ed 193c 278e 85be 0983 0d3f b0e0 823e
00000180: 1523 ac3c fa04 833d 3d81 8dbd 7729 0b3e
00000190: 342a 50be a389 89bd 82df 9d3e 3246 a13e
000001a0: 7822 a6bc bf9f 2b3e a498 56be a812 debd
000001b0: 7e67 78bd 349b a93e 5802 bc3d 96d1 f4bd
000001c0: 1d3d 9dbe 5a32 913d 0962 1bbe 6d58 273d
000001d0: bb0c 533d f280 9f3c 02b6 67be 23d2 b33d
000001e0: 9c37 0f3f f800 09be c4c6 b5bb 3eb6 ecbe
000001f0: 33db e4be a33d 6b3d 9ef7 1e3e be15 8abe
00000200: 5370 20be 0be4 c9be f60f 31bc 351f 2bbe
00000210: daaf c83e b143 0f3e 02e1 8bbe c774 4b3f
00000220: abb2 c73e 9f2f 983e 296a 583c f307 453d
00000230: 98bc dc3d 2222 56bc 7336 28bd 9f11 b83e
00000240: 3dd7 413d c9c8 a43d de30 f1bb f7ab c9be
00000250: 4997 2c3e 1dee 2bbe d720 5d3d 1cd2 983d
00000260: 6d3e 1e3d e9cb 48be 98b2 c33e 4603 dabd
00000270: d8b2 01bf 3769 92bd b933 debe 6c08 71be
00000280: f21e d93e 0ea6 07be fb27 133f 5aa5 8fbe
00000290: 59d3 dc3d a09d dabd 07a0 08be 5d9c 90be
000002a0: 5717 e6be f0e4 763e 8be2 bbbe 04eb 1a3f
000002b0: a6c6 9b3e dee6 bb3c a94c 8d3d e750 a83e
000002c0: e97d 68be 3133 863e 8da8 023c d5b4 063f
000002d0: 99a3 113e f74a b83e 1f4e 9e3e 91d8 3abe
000002e0: 3c25 a0bd 9e72 923c da36 b93e c208 083f
000002f0: c28c a3bd c13a 353e d049 8ebe 9d8b 75be
00000300: f45a 3e3a 0486 88be 0226 013f 8aa1 8c3d
00000310: 5f30 fb3d 545c b93d 606e f8be 60f5 5cbd
00000320: 428a 413d 6016 853e c6ad 2f3f aac0 cbbe
00000330: 9f6a 593d bfec bbbe 619d 85be b0d9 033f
00000340: de38 5a3e b9d0 d1bd 219b 60bd 6b0c 563e
00000350: 9b93 59be 8679 d43e 0c8d a2bd 940e 7d3e
00000360: 8cf0 a4be 5d0b cd3e f565 383c 7628 403e
00000370: 4887 da3c 4192 88be 88e4 b3be 127e 3abe
00000380: 9a9b afbd
-0.20239685 -0.13616689 0.06241123 -0.3724452 0.4417487 0.005818666 0.60168254 -0.09610141
-0.088462956 0.49947128 0.0834917 0.45430392 0.10462864 -0.30779588 0.13655773 0.2318662
-0.16397937 -0.34099615 0.33958393 0.39552447 -0.20840165 0.39901677 -0.035885848 -0.14437927
-0.15801504 0.10026465 0.29500583 -0.27027318 0.047059406 -0.20840333 -0.10657926 0.114485875
-0.20414743 0.15538041 0.12569205 0.014807932 -0.18340373 -0.28351176 -0.082478836 -0.18619345
-0.08752692 0.2412923 0.04487375 0.13519831 -0.3491747 0.07301743 0.23886544 -0.28426003
-0.0059999414 0.48342204 0.33287004 0.41371265 -0.25905216 -0.38610098 -0.10987167 0.17017795
-0.10593247 0.38712293 0.0037195617 0.058015026 -0.086555816 0.23959872 0.27740148 0.20364045
0.20424199 0.61083066 -0.11606124 0.39171517 -0.34157392 -0.12538631 0.06830794 -0.54533446
0.37523025 -0.12161638 0.24503802 -0.2847415 0.14605805 -0.315093 0.30478695 -0.1962007
-0.298788 -0.0069612917 -0.034859795 0.24876705 -0.3202315 -0.33738047 0.031688426 0.4273042
0.48220232 -0.29357028 0.07093292 0.071956776 0.009394997 -0.26085016 0.5527807 0.25562048
0.021012822 0.063974336 -0.06909416 0.13590036 -0.20328599 -0.06715705 0.30834585 0.31498867
-0.020280108 0.16760157 -0.20956665 -0.10843402 -0.060645573 0.33126223 0.091801345 -0.11954038
-0.30710688 0.07089682 -0.15174116 0.040855814 0.051525813 0.019470666 -0.22628024 0.08780315
0.5594423 -0.13379276 -0.0055473763 -0.4623279 -0.44698486 0.05743183 0.15524146 -0.26969713
-0.15667848 -0.39431795 -0.010807028 -0.16711123 0.39196664 0.13990666 -0.27320105 0.79475063
0.390035 0.29723832 0.013208904 0.048103284 0.10778159 -0.013069661 -0.04106755 0.35950944
0.047324408 0.08046109 -0.0073605618 -0.3938901 0.16854586 -0.16790052 0.053986397 0.0746195
0.038633753 -0.19609036 0.38222194 -0.106451556 -0.5066352 -0.071489744 -0.43398836 -0.23538369
0.42406422 -0.13246939 0.5748288 -0.2805584 0.10782499 -0.10674596 -0.13342296 -0.28244296
-0.44939682 0.2411077 -0.36696276 0.60514855 0.30424994 0.022937234 0.068993874 0.32874224
-0.22704281 0.2621093 0.007974756 0.5261968 0.14222564 0.35994694 0.30918977 -0.18246676
-0.07819602 0.01787692 0.3617466 0.53138363 -0.07985832 0.17698194 -0.2779069 -0.2397904
0.0007261478 -0.26664746 0.5044862 0.06866749 0.122650854 0.09050813 -0.4852171 -0.053944945
0.047250994 0.25993633 0.6862453 -0.3979543 0.053080197 -0.3670406 -0.26096633 0.5150404
0.21310756 -0.10244889 -0.054835442 0.20903175 -0.21247713 0.41498965 -0.07937059 0.24712592
-0.32214773 0.40047732 0.011254777 0.18765435 0.026675835 -0.26674083 -0.35135293 -0.18212155
-0.085746005

net.fc3.bias f4 [15]
00000000: 35d1 983d 474b a13e 00e7 b73e b939 6c3c
00000010: 368c a63c 73e0 9a3e 9e84 64bd ad57 bdbd
00000020: f39a a8bd ab51 1f3d 7f66 533e f9c3 4b3e
00000030: 56e2 a2bc 4b62 51bd 353b 153e
0.07461778 0.31502745 0.35918427 0.014418059 0.02033053 0.30249366 -0.055790536 -0.092452385
-0.08232679 0.038896244 0.20644568 0.19898976 -0.019883316 -0.05111913 0.14573367

net.fc4.weight f4 [2, 15]
00000000: dd3c 68be 3920 a2be b5cb f13d d176 153f
00000010: 810e 883e 7332 813e 84f0 8ebd b0c0 1d3e
00000020: d3cc d9be 9f3c 12bf f855 3c3f b9f6 d7be
00000030: 7b1a 333c 0134 f4be c264 f43d b0ba e03c
00000040: 1803 1b3d 955f 80be ae88 953e 9f0d eb3d
00000050: 3e9c 24bf 2dce f23e 9034 193e ed7d d7bd
00000060: 4d13 51bd 9557 3cbc 69c5 773e 5c88 dd3e
00000070: 3952 8e3e 5881 bdbe
-0.22679467 -0.3166521 0.11806432 0.58384424 0.26573566 0.25233802 -0.069794685 0.15405536
-0.4253908 -0.5712375 0.7356868 -0.42180422 0.010931606 -0.47695926 0.119332805 0.02743277
0.037844747 -0.25072923 0.2920584 0.114772074 -0.64300907 0.47422925 0.14961457 -0.10522065
-0.051043797 -0.011495491 0.241964 0.43268096 0.27797106 -0.37012744

net.fc4.bias f4 [2]
00000000: 77d8 9f3c dd02 35be
0.019512398 -0.17676874
