data/NN_training/4x15_1.0E-02/model.pth (torch, 7181 bytes, 10 tensors)

net.fc0.weight f4 [15, 10]
0	0x3f2585f0	0.646575
1	0x3e4078f8	0.18796146
2	0x3f032591	0.51229197
3	0x3f19c62d	0.6006802
4	0x3f34423b	0.7041356
5	0x3e8052a3	0.25063047
6	0xbe486549	-0.19569887
7	0x3be98dd0	0.007127501
8	0xbe3d8be0	-0.1851039
9	0xbe933eda	-0.2875889
10	0xbc85c203	-0.016327864
11	0x3f16bdb8	0.5888324
12	0xbec0a3c3	-0.3762494
13	0x3ee6b889	0.45062664
14	0xbe9d9d31	-0.3078399
15	0xbecaa544	-0.39579213
16	0xbefbfabd	-0.49214736
17	0x3c452209	0.01203204
18	0x3f11d391	0.5696345
19	0xbedafd22	-0.4277125
20	0xbe7d871c	-0.24758571
21	0xbda55d99	-0.08074493
22	0xbf4d8c9f	-0.80292696
23	0xbeb4bf13	-0.35302028
24	0xbe31239d	-0.17298742
25	0xbe17b81d	-0.14816327
26	0x3e55c1ed	0.20874758
27	0xbd232584	-0.0398307
28	0xbf04d9f1	-0.5189505
29	0xbe670fd9	-0.22564639
30	0x3dff9963	0.12480428
31	0xbeee7b2d	-0.4657835
32	0xbea7975f	-0.32732674
33	0x3e9f19d5	0.31074396
34	0xbf117fe4	-0.5683577
35	0x3e80d502	0.25162512
36	0xbed219d1	-0.4103532
37	0x3d185cd7	0.037197914
38	0xbe82a46d	-0.25516072
39	0xbf0852c8	-0.53251314
40	0xbe1dffdb	-0.15429632
41	0xbebcbd27	-0.36863062
42	0x3e935cdc	0.28781784
43	0x3e7cb644	0.24678904
44	0xbed45279	-0.41469172
45	0xbe9f90da	-0.311652
46	0xbe8f9388	-0.28042245
47	0xbebacee0	-0.36485958
48	0x3d9711be	0.07376431
49	0xbd048698	-0.03235492
50	0xbce5971a	-0.028026152
51	0xbe883858	-0.26605487
52	0xbdfb4aca	-0.12270124
53	0x3e016e6d	0.1263978
54	0x3e249d62	0.16075662
55	0xbec77f5f	-0.38964364
56	0x3ea78f4e	0.3272652
57	0xbeefce73	-0.46837196
58	0xbe9112a1	-0.28334525
59	0xbdee4f2e	-0.11636196
60	0xbe668a4e	-0.22513697
61	0xbe5b2c00	-0.21403503
62	0xbe5458af	-0.20736955
63	0x3e7beda1	0.24602367
64	0x3e489a66	0.19590148
65	0x3f1221fe	0.5708312
66	0xbe682355	-0.22669728
67	0x3e41584e	0.18881342
68	0x3e4611fa	0.19342795
69	0x3f77882f	0.96692175
70	0x3eab8502	0.33499914
71	0xbf00358b	-0.500817
72	0x3e4fc547	0.20290099
73	0xbe908a1c	-0.2823037
74	0x3f3ee46f	0.7456731
75	0x3ee3afd8	0.44470096
76	0x3e3cf6e9	0.18453564
77	0xbe2aac0a	-0.1666719
78	0xbe9b83a8	-0.30373883
79	0x3d15d8c4	0.036583677
80	0xbf5b1e49	-0.85593086
81	0xbdfabba7	-0.12242823
82	0xbf1f7e2d	-0.62301904
83	0x3e960b63	0.29305562
84	0x3db0a4f1	0.0862521
85	0xbdc46790	-0.095900655
86	0xbe1b4a9e	-0.15165183
87	0xbe94668b	-0.28984484
88	0x3ed16008	0.4089358
89	0x3e6eb045	0.23309429
90	0xbe8d6e55	-0.2762324
91	0x3f03fece	0.51560676
92	0xbed2bfea	-0.41162044
93	0x3dcfa0de	0.10138105
94	0xbdeaa7e3	-0.11457803
95	0x3e57f9a8	0.2109133
96	0xbe37840c	-0.17921466
97	0x3f3115c6	0.6917385
98	0xbe0cf2e2	-0.13764527
99	0x3e6257bf	0.22103785
100	0xbe8a687b	-0.27032837
101	0xbe824d7d	-0.25449744
102	0x3e8f3eb6	0.27977532
103	0xbe9bfdd0	-0.3046708
104	0xbe962736	-0.2932679
105	0xbddb56cb	-0.10709914
106	0xbd022c55	-0.03178056
107	0xbde5cc20	-0.112205744
108	0x3d50cbab	0.050975483
109	0x3ddb6b20	0.10713792
110	0x3eaa094a	0.33210212
111	0xbe04436a	-0.12916341
112	0xbf3a415c	-0.7275598
113	0xbeb87dc0	-0.3603344
114	0x3d89e0d4	0.06732336
115	0xbea29265	-0.31752315
116	0x3da5ffcf	0.08105432
117	0xbee6ea95	-0.45100847
118	0x3f11ad4d	0.5690506
119	0xbf12430b	-0.5713355
120	0x3d76732a	0.060168423
121	0xbe285cae	-0.16441604
122	0x3eeb7fd5	0.45995966
123	0x3eabf591	0.3358579
124	0x3e7cde2d	0.24694128
125	0x3f1e55dd	0.61849767
126	0xbe4be3e9	-0.1991116
127	0xbe5f39fa	-0.2179946
128	0x3e80318f	0.2503781
129	0xbea8e0a9	-0.32983902
130	0xbe8b0f71	-0.27160218
131	0x3dbdb23b	0.092625104
132	0xbdb4ef52	-0.08834709
133	0x3ed5b79e	0.4174165
134	0xbcb4d924	-0.022076197
135	0xbe293401	-0.16523744
136	0xbf18a84b	-0.59631795
137	0xbf300f66	-0.68773496
138	0xbf4eac6b	-0.8073184
139	0xbe5957fd	-0.21224971
140	0xbc583623	-0.013196501
141	0x3e7a9eb9	0.2447461
142	0x3f253afa	0.64543116
143	0xbe781b97	-0.24229275
144	0xbd7c1be3	-0.061550032
145	0xbe9befea	-0.30456477
146	0xbe50cfa8	-0.20391715
147	0x3e08d846	0.13363752
148	0x3c8013f7	0.01563452
149	0xbe3f0802	-0.18655398

net.fc0.bias f4 [15]
0	0xbb4d2098	-0.0031299945
1	0xbf6df4c6	-0.9295162
2	0xbd4d581f	-0.050132867
3	0xbead6e13	-0.33873042
4	0x3cf4f9b5	0.029904226
5	0xbde2a07d	-0.11065767
6	0xbe9ca7f1	-0.3059688
7	0xbed2044e	-0.4101891
8	0xbed97671	-0.42473176
9	0xbeb3a5eb	-0.35087523
10	0xbeb8a157	-0.36060593
11	0xbdbdffb3	-0.092772864
12	0x3e08e1d5	0.13367398
13	0x3d25fba3	0.040523183
14	0x3eb540d8	0.35401034

net.fc1.weight f4 [15, 15]
0	0xbef14b49	-0.4712775
1	0xbddb8e68	-0.10720521
2	0xbf2c26b2	-0.67246544
3	0xbf1c1266	-0.60965574
4	0xbe3e36cc	-0.18575591
5	0x3d22e578	0.03976962
6	0xbdb1cfc2	-0.08682205
7	0xbe938984	-0.28815854
8	0xbd90d6dc	-0.07072231
9	0x3e462afd	0.19352336
10	0x3a0ac414	0.00052935
11	0x3ea1c057	0.31592056
12	0xbdeb7e66	-0.11498718
13	0x3e92400b	0.28564486
14	0xbead4446	-0.3384115
15	0x3dd1f31d	0.10251448
16	0xbe46cff0	-0.1941526
17	0xbdfa7248	-0.12228829
18	0x3d216796	0.039405428
19	0xbee80183	-0.45313653
20	0x3dd51719	0.10404796
21	0x3e7e8c85	0.24858291
22	0x3d541dbd	0.051786173
23	0xbe4fe9a5	-0.20303972
24	0xbd8f362a	-0.06992753
25	0x3e1e4876	0.15457329
26	0x3f21550e	0.6302041
27	0xbfa02dda	-1.2513993
28	0x3d2e32f0	0.042529047
29	0xbf58c8df	-0.84681505
30	0xbf248d1e	-0.6427783
31	0xbd9bcb67	-0.07607155
32	0x3ef652cc	0.48110044
33	0xbf1b0d74	-0.605674
34	0xbf1144c7	-0.5674557
35	0xbdffb2a5	-0.124852456
36	0xbf85241b	-1.0401644
37	0x3e8c5a6f	0.27412745
38	0xbdde82c3	-0.108647846
39	0x3e88fcca	0.26755363
40	0xbe383e52	-0.17992523
41	0xbfd61e92	-1.6728079
42	0xbef818f3	-0.48456535
43	0x3db54563	0.08851125
44	0x3e1d044c	0.1533367
45	0x3e568dbb	0.20952503
46	0xbf0ef203	-0.5583803
47	0xbefc7a2b	-0.49311957
48	0x3ec4a092	0.38403755
49	0x3efa4e5f	0.48887917
50	0x3da2f38a	0.07956608
51	0x3e4ab71d	0.19796415
52	0xbf0b3b6d	-0.5438755
53	0x3e07cdb6	0.13262066
54	0x3e2c7ed1	0.16845252
55	0xbe78f98e	-0.24313948
56	0xbe4e42da	-0.2014269
57	0x3d98c3e1	0.07459236
58	0x3c636e4e	0.013881279
59	0xbec9abf8	-0.39389014
60	0x3dd742b6	0.10510771
61	0x3ce3b876	0.027797919
62	0xbd6cfe10	-0.05785948
63	0x3d6c3fad	0.057677913
64	0x3e08b672	0.13350847
65	0x3e1d8080	0.1538105
66	0xbe8eeeba	-0.2791651
67	0xbf1947da	-0.5987526
68	0x3f261238	0.6487155
69	0xbf049fbf	-0.51806253
70	0x3e6a5b9e	0.22886512
71	0x3f04f1e1	0.5193158
72	0x3e856b7c	0.26058567
73	0x3e927a6e	0.2860903
74	0x3cda58bd	0.026653642
75	0x3db907a2	0.09034659
76	0xbec22533	-0.37919006
77	0xbe8af23b	-0.27137932
78	0xbf5eb12e	-0.86989105
79	0xbf2224ed	-0.63337594
80	0xbfa5c29d	-1.2950016
81	0x3d7eace3	0.062176596
82	0x3e8b60f1	0.27222398
83	0x3e807829	0.25091675
84	0xbd38aa61	-0.04508436
85	0x3debc1b4	0.11511555
86	0xbdc95e00	-0.09832382
87	0xbe52f25d	-0.20600267
88	0xbffa15ab	-1.9537863
89	0xbe87c5ad	-0.26518002
90	0xbfaf2cd7	-1.3685559
91	0x3f019b1d	0.5062731
92	0x3ee831f1	0.45350602
93	0xbef16b76	-0.471523
94	0x3d7f3a37	0.062311377
95	0xbe31aa69	-0.17350163
96	0xbfa98f5b	-1.3246874
97	0xbe407657	-0.18795143
98	0xbdc65f7c	-0.09686181
99	0xbeecdd37	-0.46262524
100	0x3e0d2e39	0.13787164
101	0x3e0d69d0	0.13809896
102	0xbc1aa6df	-0.009439199
103	0x3e93e67e	0.2888679
104	0x3e77e59f	0.24208687
105	0xbe9e4c0b	-0.3091739
106	0xbdf4a293	-0.11945071
107	0x3e698a2e	0.22806618
108	0x3e9094be	0.2823848
109	0x3ddbfbce	0.10741387
110	0xbf245f88	-0.6420827
111	0xbeb4a040	-0.3527851
112	0xbe413dc7	-0.18871222
113	0x3ea22f76	0.31676835
114	0xbca47835	-0.02007685
115	0xbd70ee0a	-0.05882076
116	0xbf3d4454	-0.73932385
117	0xbdc4a26b	-0.09601291
118	0x3d4cf3c6	0.050037168
119	0x3e84c27b	0.25929627
120	0xbfc162cc	-1.5108275
121	0xbf27a467	-0.65485233
122	0x3ed9bea8	0.42528272
123	0x3e520f75	0.20513709
124	0xbd1a9876	-0.037743054
125	0xbe440d03	-0.19145589
126	0xbfe56bf2	-1.7923567
127	0xbe1678ba	-0.14694491
128	0x3d418105	0.047242183
129	0xbfe4cb28	-1.7874498
130	0x3d830b40	0.0639863
131	0xbe850c92	-0.25986153
132	0xbc8d889c	-0.017277054
133	0x3ea2f1d5	0.31825128
134	0x3ec02489	0.37527874
135	0x3ea5bc01	0.32369998
136	0x3e6142a7	0.21998082
137	0xbf0115c0	-0.5042381
138	0x3ea27c39	0.317354
139	0xbeca0b60	-0.39461803
140	0x36f92900	7.4255513e-06
141	0x3e132888	0.1437093
142	0xbcacb17c	-0.021080725
143	0x3ed27e75	0.41112104
144	0xbf234037	-0.6376986
145	0x3f081bd5	0.5316747
146	0x3f0aee99	0.5427032
147	0xbf83602a	-1.0263722
148	0xbe987809	-0.2977908
149	0xbf31e298	-0.6948638
150	0xbf629f4a	-0.88524306
151	0xbe4e3b7a	-0.20139876
152	0x3f044660	0.51669884
153	0x3e191402	0.14949039
154	0xbf0efed8	-0.5585761
155	0x3ccbf8fa	0.024898995
156	0x3e5ae51c	0.21376461
157	0xbe13bcab	-0.1442744
158	0xbf5fd045	-0.8742717
159	0x3dbeac39	0.093101926
160	0xbd8f1f5b	-0.069884025
161	0xbda10413	-0.07862105
162	0x3e847dd4	0.2587725
163	0xbf5237eb	-0.82116574
164	0xbe423c0a	-0.18968216
165	0x3f0c1136	0.5471376
166	0x3cd44d70	0.025915831
167	0x3d4bc16f	0.04974502
168	0x3e48f043	0.19622903
169	0xbd774350	-0.06036693
170	0x3ef5eb94	0.48031294
171	0x3dabb773	0.083845995
172	0xbf6b13cc	-0.9182708
173	0xbe9f52d8	-0.31117892
174	0xbeb22028	-0.34790158
175	0x3e5c8c5a	0.21537915
176	0xbe3cb868	-0.1842972
177	0x3d9482ec	0.07251534
178	0x3d983852	0.07432617
179	0xbe4a2248	-0.1973964
180	0x3d7ad14a	0.06123475
181	0xbf02dec7	-0.5112118
182	0x3ea0993e	0.31366915
183	0x3ec00d15	0.3750998
184	0x3e978074	0.2959019
185	0x3e5c2cbb	0.21501438
186	0x3eae1821	0.34002784
187	0x3e626778	0.22109783
188	0x3e77c274	0.24195272
189	0xbe81f0c6	-0.25379008
190	0x3eeb380b	0.45941195
191	0xbe3efd03	-0.18651204
192	0xbee04718	-0.4380424
193	0x3d6d3bdb	0.05791841
194	0xbf8f1f34	-1.1181397
195	0x3d02a38b	0.031894248
196	0xbd090350	-0.033450425
197	0x3d293076	0.04130598
198	0x3e103bc4	0.14085299
199	0xbe442b12	-0.19157055
200	0xbfb0b757	-1.3805951
201	0x3c7404bd	0.014893708
202	0x3e110da6	0.14165363
203	0xbe398026	-0.18115291
204	0x3ea44753	0.32085666
205	0x3d8d9822	0.06913783
206	0x3ee24e35	0.44200292
207	0x3ddcff60	0.107908964
208	0xbeebb975	-0.4603993
209	0x3dcf5761	0.10124088
210	0xbd3196c1	-0.04335666
211	0xbf0df7e9	-0.55456406
212	0x3d2d410c	0.04229836
213	0x3e180628	0.14846098
214	0x3e6d49e3	0.23172717
215	0x3ee53db7	0.44773647
216	0xbf294c05	-0.6613162
217	0x3e2b1c5a	0.16710034
218	0xbf508fb4	-0.81469274
219	0x3e66941b	0.22517435
220	0x3f18acc3	0.59638613
221	0x3ed57683	0.4169198
222	0xbf4c7818	-0.7987075
223	0x3e36eb13	0.17863111
224	0xbf15aabb	-0.5846364

net.fc1.bias f4 [15]
0	0xbd6e4711	-0.058173243
1	0xbe9206af	-0.28520724
2	0xbe7dccfa	-0.24785224
3	0x3e9c8b3e	0.30574983
4	0x3ef65ef5	0.4811932
5	0x3eee61bf	0.4655895
6	0xbcb5ca78	-0.022191271
7	0x3e521296	0.20514902
8	0x3eb3472f	0.35015246
9	0xbe2bc60c	-0.16774768
10	0x3eefe54a	0.4685462
11	0x3deb2e64	0.11483458
12	0x3e4296a4	0.19002777
13	0x3d6597aa	0.05605284
14	0x3e07ecef	0.13273977

net.fc2.weight f4 [15, 15]
0	0x3e25a3fc	0.16175836
1	0x3c9a9a08	0.018872276
2	0xbe5b9bca	-0.21446148
3	0xbf0f6f27	-0.5602898
4	0x3e525b04	0.20542532
5	0xbe1baea2	-0.15203336
6	0x3f04c4b1	0.5186263
7	0xbf817759	-1.0114547
8	0x3eede102	0.4646073
9	0x3e9dd4c7	0.308264
10	0x3f1125d5	0.5669835
11	0xbeabe17b	-0.33570465
12	0x3e0e1ad2	0.13877419
13	0xbf57e255	-0.8432973
14	0x3ed8ec5d	0.4236783
15	0x3ec436aa	0.38322955
16	0xbe6dac60	-0.23210287
17	0xbdb1dfe8	-0.08685285
18	0x3bbf0420	0.005829349
19	0xbf039b52	-0.51408875
20	0x3e05a12e	0.13049766
21	0xbe8bfc00	-0.27340698
22	0xbc7bdf95	-0.01537313
23	0xbecf843b	-0.4053057
24	0x3d853bdc	0.06505558
25	0x3e48914c	0.19586676
26	0xbe435362	-0.19074777
27	0x3e9fc690	0.3120618
28	0x3ea11ceb	0.31467375
29	0x3db3f90b	0.087877356
30	0xbe905932	-0.2819305
31	0xbf5187ba	-0.8184773
32	0xbdd94030	-0.10607946
33	0xbf2ca7fa	-0.6744381
34	0x3ef245b9	0.4731882
35	0xbc45b1d5	-0.012066324
36	0xbe0018e1	-0.1250949
37	0x3ddce06c	0.107849926
38	0x3f16dccc	0.5893066
39	0x3ca15405	0.019693384
40	0xbf31f9ba	-0.6952168
41	0xbf70e961	-0.9410611
42	0xbf1d3fee	-0.61425674
43	0xbe581c66	-0.21104583
44	0xbf3f2f93	-0.7468197
45	0x3d7aeaee	0.061259203
46	0xbec37af5	-0.38179746
47	0x3d7109ec	0.058847353
48	0x3d1dcb3c	0.038523898
49	0x3e53149a	0.20613328
50	0xbd46f760	-0.04857576
51	0x3f0a965f	0.541357
52	0x3e06dbe9	0.13169827
53	0x3e2d734a	0.1693851
54	0xbb123fd6	-0.0022315881
55	0xbc5c0752	-0.01342948
56	0xbe97450f	-0.29544875
57	0xbea1fd45	-0.31638542
58	0x3eac47cd	0.3364853
59	0xbf5c8b21	-0.86149794
60	0x3e72a25b	0.23694746
61	0xbe563456	-0.20918402
62	0x3ea3f803	0.32025155
63	0x3d9e0d2b	0.07717355
64	0x3ea18b50	0.315516
65	0x3eca9204	0.39564526
66	0xbe832fa0	-0.25622272
67	0xbeb27a93	-0.34859142
68	0xbe9d9db1	-0.30784371
69	0xbdcdaa94	-0.10042301
70	0x3eb3a821	0.3508921
71	0x3e3a7ce1	0.182117
72	0xbf0156c7	-0.50523037
73	0x3dc98ac0	0.098409176
74	0xbe046ad1	-0.12931372
75	0xbd9128ad	-0.070878364
76	0xbe1c57d3	-0.15267877
77	0x3db6d0ec	0.089265674
78	0xbec82c8e	-0.39096493
79	0x3e0365c2	0.12831786
80	0xbe53bdb0	-0.20677829
81	0x3e72ad4e	0.23698923
82	0x3e85a665	0.2610351
83	0xbd191e9c	-0.037382707
84	0xbe4da58b	-0.20082681
85	0x3e2cb693	0.16866522
86	0xbf39ce60	-0.7258053
87	0x3e696a4e	0.22794458
88	0x3eaa86d2	0.33305985
89	0xbe319596	-0.17342219
90	0x3b8981a0	0.0041963607
91	0xbe17d70c	-0.14828128
92	0xbe0e764e	-0.13912317
93	0x3d52eae7	0.05149355
94	0xbb98c9f9	-0.004662749
95	0x3ec5a05c	0.38598907
96	0xbecb7cd9	-0.3974369
97	0xbdc36fdd	-0.095428206
98	0x3cc16203	0.023606306
99	0x3e3ecde1	0.18633224
100	0xbe61139f	-0.21980141
101	0x3de73c2a	0.11290772
102	0xbe097534	-0.13423616
103	0xbe84371f	-0.25823304
104	0x3ddda122	0.10821749
105	0x3d54463d	0.051824797
106	0xbe0e43f6	-0.13893113
107	0x3f6ff4fb	0.93733186
108	0xbf1b8dff	-0.60763544
109	0xbdca2def	-0.098720424
110	0xbdee3333	-0.11630859
111	0x3f2dd5cc	0.67904353
112	0x3e8dbad6	0.27681607
113	0xbe850d3d	-0.25986663
114	0x3eb0f1d0	0.34559488
115	0xbe30145f	-0.17195271
116	0xbf998e91	-1.1996633
117	0xbd84d611	-0.064861424
118	0xbc80f386	-0.015741121
119	0x3d95a637	0.073070936
120	0x3e9e8eba	0.30968267
121	0xbdba0620	-0.090831995
122	0xbc7a282a	-0.015268365
123	0xbd008e93	-0.03138597
124	0xbe403eac	-0.18773907
125	0x3f2148fe	0.63002
126	0xbdd1be25	-0.10241345
127	0xbea1d411	-0.31607106
128	0x3dc9997a	0.098437265
129	0x3ec8a004	0.39184582
130	0xbe413331	-0.18867184
131	0x3d7fcdbb	0.06245206
132	0xbeb8d542	-0.36100203
133	0xbe50c625	-0.20388086
134	0x3e1675af	0.1469333
135	0xbda2e706	-0.079542205
136	0x3ecd24d4	0.4006716
137	0x3d58e78b	0.05295519
138	0xbe220e5d	-0.15825792
139	0x3e75f031	0.24017407
140	0xbe80a7ae	-0.2512793
141	0x3f4fd64e	0.8118638
142	0xbcf75f58	-0.03019683
143	0x3eceaa34	0.4036423
144	0x3ede4aef	0.43416545
145	0x3eb44474	0.35208476
146	0xbe0a0373	-0.13477878
147	0xbce1420d	-0.027497316
148	0xbe0e0755	-0.13869984
149	0x3ecd60e5	0.40112987
150	0xbc595334	-0.013264466
151	0xbf3b2c02	-0.73114026
152	0xbcc860b2	-0.02446017
153	0xbeb13abb	-0.3461512
154	0xbde346d0	-0.11097491
155	0xbf179f03	-0.5922701
156	0x3d43b282	0.04777766
157	0x3eb58489	0.3545268
158	0x3f2ec2ef	0.68266195
159	0xbe50c1d4	-0.2038644
160	0xbd7c5976	-0.061608754
161	0xbf2970ed	-0.66187936
162	0xbf778770	-0.96691036
163	0x3ea2214a	0.31666023
164	0x3e0e51e3	0.13898425
165	0x3e43c0bf	0.19116496
166	0x3ee7405a	0.45166284
167	0x3c318fcc	0.0108375065
168	0x3eb18a4e	0.3467583
169	0xbee25bde	-0.44210714
170	0x3f048b0d	0.51774675
171	0xbeff5643	-0.498705
172	0x3e8dec20	0.27719212
173	0x3ef26323	0.4734126
174	0xbd961815	-0.07328812
175	0xbeb956c5	-0.36199012
176	0x3e37fa47	0.17966567
177	0xbc99d4a1	-0.018778147
178	0x3ec1724d	0.37782517
179	0xbd96456b	-0.07337459
180	0x3d576715	0.05258854
181	0xbec42282	-0.38307577
182	0x3eea2ba2	0.45736414
183	0xbe0e1bf0	-0.13877845
184	0xbfc82708	-1.5636911
185	0xbe0e6a8d	-0.13907833
186	0x3ca2449c	0.019808106
187	0xbe9bd720	-0.30437565
188	0x3e932464	0.287387
189	0xbc90492f	-0.017613022
190	0x3f0c99c3	0.5492212
191	0xbee5b4a4	-0.4486438
192	0x3e853133	0.260141
193	0xbf340b86	-0.70330083
194	0xbded8c84	-0.11599067
195	0x3e6cca14	0.23123962
196	0xbe5badd5	-0.2145303
197	0xbb4c313e	-0.003115728
198	0x3e7edbff	0.2488861
199	0xbee8d1a4	-0.45472443
200	0x3d1a7f85	0.03771927
201	0x3808e160	3.2634824e-05
202	0xbecc0c1d	-0.39852992
203	0x3cce8c35	0.02521334
204	0x3f06038b	0.52349156
205	0x3e23a522	0.15980962
206	0x3ee21d8a	0.44163162
207	0xbf37e306	-0.71830785
208	0x3cbcd5b1	0.023051115
209	0xbc83f3d3	-0.016107475
210	0xbd485941	-0.048913244
211	0x3ebea50a	0.3723529
212	0x3ead71b8	0.33875823
213	0xbf6c08aa	-0.9220072
214	0x3c4e4d1d	0.012591627
215	0xbc056b98	-0.008143328
216	0x3f00e113	0.50343436
217	0x3e980f39	0.29699114
218	0x3ec02081	0.375248
219	0x3e755d80	0.23961449
220	0xbe899b34	-0.26876223
221	0xbf24dccc	-0.6439941
222	0x3d9acf68	0.07559091
223	0x3efd97fc	0.49530017
224	0x3d92a21e	0.07159828

net.fc2.bias f4 [15]
0	0x3e913c60	0.28366375
1	0xbf44b394	-0.76836514
2	0x3e9db5f0	0.3080287
3	0x3f0eb913	0.5575115
4	0x3eb908b9	0.36139467
5	0xbf2f2d0d	-0.6842812
6	0x3eb1a137	0.3469331
7	0xbe4cf04d	-0.20013542
8	0x3ee28f41	0.4424992
9	0xbe0a9475	-0.13533194
10	0x3e8a6e72	0.27037388
11	0xbf24f585	-0.64437133
12	0xbe73c9e2	-0.23807481
13	0x3bfe7151	0.007764973
14	0xbf3f6927	-0.74769825

net.fc3.weight f4 [15, 15]
0	0xbed225d3	-0.41044483
1	0xbe24f0a5	-0.16107424
2	0x3e06e867	0.13174592
3	0xbec2c1c0	-0.38038445
4	0x3c2982a6	0.01034609
5	0xbe01b73a	-0.12667552
6	0xbd92b602	-0.071636215
7	0x3d848a33	0.06471672
8	0x3f05575c	0.52086425
9	0x3eb6f46c	0.35733354
10	0x3c2a8ccf	0.010409548
11	0x3d7291e0	0.05922115
12	0x3e5448be	0.20730874
13	0xbe44877d	-0.1919231
14	0x3e51fd30	0.2050674
15	0x3ee9e697	0.4568374
16	0xbe7a9402	-0.24470523
17	0xbed55346	-0.41665095
18	0xbe84981a	-0.25897294
19	0xbe7f1f0a	-0.24914184
20	0xbebc3580	-0.36759567
21	0xbd0fe29c	-0.03512822
22	0x3ddb2e5a	0.107022
23	0x3e806614	0.2507788
24	0x3e48ef15	0.19622453
25	0xbee074d9	-0.43839148
26	0xbe8a89c9	-0.27058247
27	0xbe6d7d76	-0.23192391
28	0xbe732c57	-0.23747383
29	0xbeaa7861	-0.33294967
30	0xbe7ca247	-0.24671279
31	0x3dd02994	0.101641804
32	0x3ee86afa	0.45394117
33	0xbd8c642f	-0.06855046
34	0xbd961c55	-0.07329623
35	0xbf764f24	-0.9621451
36	0x3f2d7200	0.67752075
37	0xbf4ab5a1	-0.79183394
38	0x3cf372ba	0.029717792
39	0xbe640f2d	-0.22271414
40	0xbe8d55e7	-0.276046
41	0xbde727f9	-0.11286921
42	0xbe7edbc0	-0.24888515
43	0x3e8e9afc	0.2785262
44	0xbf972e16	-1.1810939
45	0xbef98e5f	-0.48741433
46	0x3d5e6801	0.054298405
47	0x3e0fc7f1	0.14041115
48	0xbf0d5006	-0.5520023
49	0xbe916477	-0.2839696
50	0x3e43ec37	0.19133078
51	0xbea24cd9	-0.31699255
52	0xbeb6ace9	-0.35678795
53	0xbe8a8798	-0.27056575
54	0x3e057a4e	0.13034937
55	0x3d965d5e	0.07342027
56	0x3f003e28	0.5009484
57	0x3e93b832	0.28851467
58	0xbdf3541b	-0.11881276
59	0x3ebbc1ab	0.36671194
60	0x3deb39cb	0.114856325
61	0xbe197053	-0.14984255
62	0xbe714703	-0.23562245
63	0x3e9193f6	0.28433198
64	0x3e7a2962	0.24429849
65	0x3d85512d	0.06509624
66	0x3c8173b4	0.015802242
67	0xbf32d493	-0.6985561
68	0x3f1614d3	0.58625525
69	0xbf081ce1	-0.53169066
70	0xbe027daf	-0.12743257
71	0x3b091433	0.002091658
72	0x3e306a42	0.17228034
73	0xbdf60fa4	-0.12014702
74	0xbf9b2bee	-1.2122781
75	0xbd9c63bd	-0.07636211
76	0x3c9aeff7	0.018913252
77	0x3f2e574c	0.68101954
78	0x3e67c4b4	0.2263363
79	0xbe65b64d	-0.22432823
80	0xbe9f95c9	-0.31168965
81	0xbe8ec7e1	-0.2788687
82	0xbdc41e6a	-0.095761135
83	0x3e333b50	0.17503095
84	0x3ef85929	0.48505524
85	0xbe3f7354	-0.18696338
86	0x3d619bbf	0.05508017
87	0xbecfa205	-0.405533
88	0xbbb7b4cf	-0.005606271
89	0xbd101e75	-0.035185296
90	0x3dd21c6c	0.10259327
91	0xbe5154aa	-0.20442453
92	0x3e0ec643	0.13942818
93	0x3bb99b86	0.005664292
94	0x3d62880b	0.055305522
95	0x3f27a1fd	0.6548155
96	0x3b970f4f	0.004609979
97	0xbd76b9b6	-0.0602357
98	0xbcc91d11	-0.024549993
99	0xbdb346b4	-0.0875372
100	0xbda77b49	-0.08177812
101	0x3eab7ad6	0.33492154
102	0x3decd2cb	0.11563643
103	0x3e13faa4	0.1445108
104	0x3d798945	0.060921926
105	0x3e97b602	0.29631048
106	0xbe96970b	-0.29412112
107	0xbe121c5a	-0.14268628
108	0xbecbc331	-0.39797357
109	0xbe9ecff4	-0.3101803
110	0xbe5e2c2b	-0.21696536
111	0x3eaffb81	0.3437157
112	0xbe9edeaf	-0.3102927
113	0xbe9dee8c	-0.3084606
114	0x3e365e55	0.17809422
115	0xbec874b2	-0.3915153
116	0xbf38406d	-0.71973306
117	0xbe958724	-0.29204667
118	0xbf12f0cc	-0.57398677
119	0xbf53d817	-0.827516
120	0x3d24943d	0.040180434
121	0x3d87fa14	0.066394955
122	0x3ec564fd	0.3855361
123	0xbed87495	-0.42276445
124	0xbebfabbc	-0.3743571
125	0x3f27514c	0.65358424
126	0xbe519d6e	-0.20470211
127	0x3e97b435	0.29629675
128	0xbc26eac3	-0.0101878075
129	0xbe6cbf27	-0.23119794
130	0x3e19d2d3	0.1502183
131	0x3eba2a2b	0.36360297
132	0xbe78d75b	-0.24300902
133	0x3eb338c9	0.3500426
134	0xbf2c6741	-0.6734505
135	0xbdbeb274	-0.09311381
136	0xbeceb736	-0.40374154
137	0xbdb8426b	-0.08997043
138	0x3f301469	0.68781143
139	0x3e3d32f2	0.18476465
140	0xbf08dd0b	-0.53462285
141	0xbe38a0e6	-0.18030128
142	0x3e7da5f1	0.24770333
143	0x3e90cffc	0.2828368
144	0xbe87aaa7	-0.26497385
145	0x3deb4d63	0.1148937
146	0xbe950443	-0.29104814
147	0xbf46460b	-0.7745063
148	0xbd256476	-0.04037901
149	0xbe88d8e7	-0.26727983
150	0x3e147483	0.1449757
151	0xbd3bfde0	-0.04589641
152	0x3d665473	0.05623288
153	0xbeb784c5	-0.35843483
154	0x3d823de5	0.06359462
155	0xbe2b0cfc	-0.16704172
156	0x3f2d828f	0.6777734
157	0xbde3bf84	-0.11120513
158	0x3f36ce99	0.71408993
159	0xbf147994	-0.57998013
160	0x3ac782a8	0.0015221434
161	0xbca69b85	-0.02033783
162	0x3ec88edf	0.39171502
163	0xbd604233	-0.054750632
164	0xbe838100	-0.25684357
165	0x3ea90f3e	0.3301944
166	0x3ddac4c4	0.10682061
167	0x3eae2251	0.34010556
168	0xbe5e6cfd	-0.21721263
169	0xbdb50890	-0.08839524
170	0x3e0dbcc0	0.13841534
171	0xbe018be8	-0.12651026
172	0xbcab65e9	-0.020922618
173	0xbce7128a	-0.028207082
174	0xbe8b8d6a	-0.27256328
175	0x3e097792	0.13424519
176	0xbeaf9485	-0.34293
177	0xbe60bcbb	-0.21946995
178	0x3f069260	0.525671
179	0x3cb8e447	0.022569789
180	0x3e27201c	0.16320843
181	0xbe7663aa	-0.24061456
182	0x3e97a655	0.2961909
183	0xbd040622	-0.03223241
184	0x3e58782a	0.21139589
185	0xbdbc618e	-0.091982946
186	0xbeba0f0d	-0.36339608
187	0xbd5eaa53	-0.054361653
188	0xbea1277f	-0.31475446
189	0xbedf1ca3	-0.43576536
190	0xbd3d52fa	-0.04622171
191	0xbcec518c	-0.028847478
192	0x3e157057	0.14593635
193	0xbed6fd13	-0.41989955
194	0x3dd29649	0.10282571
195	0x3e8f8da2	0.28037745
196	0x3f8fb41f	1.1226844
197	0x3e091d13	0.13389997
198	0x3e1022e1	0.14075805
199	0xbe96598e	-0.293652
200	0x3df3d4e2	0.119058385
201	0xbe869268	-0.26283574
202	0x3d324002	0.043518074
203	0x3e33ef98	0.17571867
204	0xbe77d544	-0.24202448
205	0xbee2ba14	-0.4428259
206	0x3e999d55	0.30002847
207	0x3e73ba56	0.2380155
208	0x3e850561	0.25980666
209	0x3e557eb6	0.20849118
210	0x3c82a7fe	0.015949246
211	0xbf15b61b	-0.58480996
212	0x3f34edec	0.7067554
213	0x3ef0e1a0	0.47047138
214	0xbda17894	-0.078843266
215	0xbe8f2bb0	-0.27963018
216	0xbf4be8e4	-0.7965224
217	0xbe644f14	-0.22295791
218	0xbf8f2354	-1.1182656
219	0xbdd3e439	-0.103462644
220	0x3eff08e4	0.4981147
221	0xbc8f0bfa	-0.017461766
222	0xbebbb55a	-0.36661798
223	0xbe896b94	-0.26839888
224	0xbe5e0d1b	-0.21684687

net.fc3.bias f4 [15]
0	0xbd2ae396	-0.04172095
1	0x3ed3cd14	0.413674
2	0x3f032702	0.51231396
3	0xbcbd6eae	-0.023124065
4	0x3eabd42c	0.33560312
5	0xbdb93707	-0.09043699
6	0xbe6ce87c	-0.23135561
7	0x3ef5745b	0.47940335
8	0xbcdfc263	-0.02731437
9	0x3edb47d1	0.4282823
10	0xbdfb623c	-0.12274596
11	0xbe82826b	-0.25490126
12	0xbe704c4f	-0.2346661
13	0xbe40a43c	-0.1881265
14	0x3d97040d	0.073738195

net.fc4.weight f4 [2, 15]
0	0x3d380545	0.0449269
1	0xbf148f42	-0.58031094
2	0xbe3c3f02	-0.1838341
3	0xbef3cd35	-0.47617498
4	0xbeb96eb0	-0.3621726
5	0x3e667aaa	0.2250773
6	0x3b4bb804	0.0031085024
7	0xbe01a26e	-0.12659618
8	0x3d3d8499	0.046269033
9	0x3ef9d1b8	0.48792815
10	0x3eab1967	0.33417818
11	0xbcac4efc	-0.021033756
12	0x3c6773fb	0.014126773
13	0x3c55bca0	0.01304546
14	0x3ec5aee8	0.38610005
15	0x3c43e2b4	0.011955906
16	0x3f0d0790	0.55089664
17	0xbec82379	-0.39089563
18	0xbe22f823	-0.15914969
19	0xbef059fa	-0.46943647
20	0x3e5ca842	0.2154856
21	0xbc501f0b	-0.012702714
22	0x3eec143a	0.46109182
23	0xbd4890b2	-0.048966117
24	0xbf04ba5e	-0.51846874
25	0x3e0d4245	0.13794811
26	0xbd5e6e76	-0.054304563
27	0x3acc483e	0.0015585495
28	0xbd479593	-0.04872663
29	0x3e47776f	0.19479154

net.fc4.bias f4 [2]
0	0xbe2e63e4	-0.17030293
1	0xbcb9ca9b	-0.022679618
