data/NN_training/4x15_2.0E-02/model.pth (torch, 7117 bytes, 10 tensors)

net.fc0.weight f4 [15, 10]
00000000: 91cc 35bf c4e2 823d c0db a7bf 07d4 69bf
00000010: b0b3 aabf 0af9 85be 0398 003f 2ce4 e6be
00000020: ebe6 99be d73c dfbe f8d6 80be 9982 b2be
00000030: 757c 8bbf bdef 703d 8749 bfbe 0381 48be
00000040: ad4e b23e 564d d9be 31a3 25bf f623 053f
00000050: 17a2 153f ccc6 26bf 07bf 1ebf 325e 96be
00000060: 4b6f 373f 2859 47bf 30ae 31bf bfc5 03bf
00000070: 9c37 903f 3193 32bf f9f3 193f 94c1 b9bd
00000080: c73c dd3e c6fd 813e 85fb a03d d369 ddbe
00000090: 3bfd 32bf ef46 fe3e 5367 13be e4de 753f
000000a0: 3340 aebe 85f2 4fbc 992d 023f 7b8d 993e
000000b0: 8901 893f 8823 253f 7df7 8cbe 8b2f f1bc
000000c0: 7966 3bbf d523 4cbf c703 5f3e 71f2 aebe
000000d0: 1c26 84bf 925b 3cbf 76b3 98bd 572e d5be
000000e0: 0bc6 703f 696e 32bf a64f b8bb 4ab6 d43d
000000f0: 1865 c2be 3a00 43bf 93eb df3e 584c 4f3e
00000100: 96e6 683d da52 34be 6e3b 653e aff2 2fbf
00000110: 8642 103e 385f 2abf be9c 4c3f 84ea 3fbe
00000120: 8a2a b43f e63a 8f3d 7083 e4be 4678 18bf
00000130: a90e 6a3f fb87 e13e a99f 103d d879 aa3a
00000140: 5b55 dfbd 7f73 79be dbb4 bebe 4169 7a3f
00000150: 997c 5fbf eb00 34bf a54f 74be 680a 113d
00000160: 3875 a53f dac2 333f 2d0e 8ebe e566 3ebf
00000170: 8352 513f 76b7 e0be 833f 8ebd 66e6 d7be
00000180: 08b9 67bf 8062 f1be 850c 7e3e ad57 74be
00000190: f777 91bf 003d 07bf bcec 89be 82a4 a2bf
000001a0: f36b 1d3d bda6 573f 2001 863e 4a6f 67bf
000001b0: 04fe 21bc 3ac3 bebe c20f 83be e546 3abe
000001c0: 6306 49bf 0165 1fbf 356f c8bd c9d0 993f
000001d0: 3b5d 41bf 79f8 a33f bbe5 1dbf ffea b03e
000001e0: a5a7 06bf 169a 873f db93 583e fe6b 5ebe
000001f0: 366c 0bbf def9 39be 67d3 21bf ece3 eb3e
00000200: d782 adbc 541c 89be 3827 f7bd 8cb2 af3e
00000210: a303 b7bd a3b2 a13f d425 c3be a0c1 0a3f
00000220: 5a1b 12bf 52a7 97be e913 483f cf22 873f
00000230: 6c8b b8be 1a8a 403f e69a afbf 29e3 1b3f
00000240: d2b0 13be ea2b 383f 38d0 f13d 7604 363f
00000250: a0e8 be3e bdf3 92be
-0.7101527 0.06390908 -1.3113937 -0.91339153 -1.3336086 -0.26166564 0.5023195 -0.45095956
-0.3005899 -0.43601105 -0.25164008 -0.34865263 -1.0897356 0.058822382 -0.37360784 -0.19580464
0.3482565 -0.42441815 -0.64702135 0.52008 0.58450454 -0.6514709 -0.62010235 -0.2936874
0.71654195 -0.77870417 -0.69406414 -0.5147361 1.1266971 -0.69755846 0.601379 -0.09070125
0.43210432 0.25388926 0.078604735 -0.432448 -0.6991765 0.49663493 -0.14394884 0.9604323
-0.34033355 -0.0126920985 0.50850827 0.29990754 1.0703593 0.6450734 -0.2753257 -0.029441616
-0.73203236 -0.79742175 0.21778785 -0.34169343 -1.032413 -0.73577225 -0.074561045 -0.41636917
0.9405219 -0.6969972 -0.005624729 0.103863314 -0.37967753 -0.7617222 0.43734416 0.20243967
0.05686053 -0.1760973 0.22385952 -0.6872968 0.14087877 -0.6655154 0.7992667 -0.18741804
1.4075482 0.06993656 -0.4463153 -0.5955852 0.9142862 0.44049057 0.035308514 0.0013006283
-0.10904952 -0.24360465 -0.37247357 0.97816855 -0.87299496 -0.703139 -0.23858507 0.035410315
1.2926397 0.70219195 -0.2774519 -0.74375755 0.8176653 -0.4388997 -0.06945708 -0.42167968
-0.9051671 -0.47145462 0.24809463 -0.2386157 -1.1364735 -0.52827454 -0.26938426 -1.2706454
0.038433027 0.842388 0.26172733 -0.9040419 -0.009887222 -0.3725832 -0.2559796 -0.18191107
-0.7852537 -0.62263495 -0.09786836 1.2016841 -0.75532883 1.2810203 -0.61678666 0.34554288
-0.52599555 1.0593898 0.21150152 -0.21720883 -0.5446199 -0.18161723 -0.632132 0.46072328
-0.021180553 -0.26779425 -0.12068027 0.34315908 -0.089362405 1.2632641 -0.38114798 0.542017
-0.57072985 -0.29619843 0.7815538 1.0557498 -0.3604387 0.75210726 -1.3719146 0.60893494
-0.1442292 0.7194201 0.11807293 0.71100557 0.37286854 -0.28701583

net.fc0.bias f4 [15]
00000000: b9cd b3be 321f 8c3e 0b78 34bf c91e d13e
00000010: cdd9 35bf 1544 21bf 858a cd3d 8f19 6cbf
00000020: cef8 cbbe 569d 653e 26b2 20bf 1af5 4ebf
00000030: 0353 77bf 23f0 c7be 46f2 313e
-0.3511789 0.2736755 -0.7049567 0.408438 -0.7103546 -0.6299451 0.10036186 -0.922265
-0.3983826 0.224233 -0.6277183 -0.80842745 -0.9661104 -0.39050397 0.17377576

net.fc1.weight f4 [15, 15]
00000000: d12e c53d acc7 38be 599c cabe ebac fabd
00000010: 0a57 01c0 611d 013e 4859 c5bf 9f5d 263f
00000020: 3f7b 513d a04d f2be 5820 3ebf 3eee 92bf
00000030: 2161 503f 5c3c 7abf 2429 b0bc b994 82be
00000040: 2c31 08be fa87 98bf 02d2 f8bd 8c3e c9be
00000050: f1ce bbbf f07a e0be f1d6 443e 11bb 463e
00000060: b18f 4cbe 6f88 b1be b930 d1be 29d4 22bf
00000070: 9452 7bbe 9196 f3bd 93e7 c5be 4ee0 4dbe
00000080: 384e a03e 7068 83be ccf4 cf3e 6959 72be
00000090: 3671 fbbe f700 83be c96f ec3e 0ba4 91bf
000000a0: 23cd 403e ba6b 523d 0a15 f5bb ec19 bfbd
000000b0: 0222 39bf 3321 8cbe 6aff d4be fcdf 97bf
000000c0: 5388 03bf 04f6 383e b882 dbbd 51e7 abbf
000000d0: bc15 abbf dd25 e23e a01a c1bf 03d7 573f
000000e0: 8465 88be b3f1 53bf b448 76bf 4381 e5bd
000000f0: 770c 00bf 3744 19c0 c402 3dbf b20c 513e
00000100: 85e1 ea3e a3bd 69bf 29bc a8bd 7880 ff3e
00000110: 9933 39be e662 0ebe 4f3b d5be 7412 ddbe
00000120: 3035 00bf e39f b7bd 2a91 efbc 4270 203e
00000130: 4164 b0bf 85b3 e2bf 1fea 8abf 1b3d 7a3e
00000140: cb87 69bf 6580 96bf 827e c0bf 5426 743e
00000150: a38b 2cbf eec2 853d 63fd c9bd 056f e8be
00000160: 41cb a5bf 0870 c2bd 5c43 feb9 d70b 71bf
00000170: dece 66bf c277 9f3e 8e81 833e 318c 0ebf
00000180: d94e 9d3d 75c6 b53e 7ab4 07bf 549e ce3e
00000190: be76 293b 1b87 47bf 8be8 6abe 02de 7fbf
000001a0: 5332 2fc0 0cba 51bf 7ce0 1e3e 96c8 06bf
000001b0: 242e 07bf 80c7 b1bf 3dfa 6cbe a46b 10bf
000001c0: 8858 a4be 6957 61bf 6540 c1be dd64 d5bf
000001d0: 5866 19bd e712 4a3f 6e0d 463e e0cb 6bbf
000001e0: b8e3 a43f 7709 b43d a044 aa3e 932d c4bd
000001f0: d141 883e ec8d 723e 6ffe 9bbd 70d8 b7be
00000200: 1c9b a5bf 482c 2b3f fb5e 92bf ec70 18c0
00000210: a5b9 e0bf e754 c2bf 3f82 e4bf 0063 053e
00000220: 373a 37bf 61f8 ee3d c2a7 f1bf 7bb7 ebbe
00000230: f9be a83d 13f9 08bd 77e8 953d cf55 183f
00000240: 879c 043f 25c3 e53d 6e47 0bc0 5b24 0d3b
00000250: a9aa cdbe 0a99 10bf 662a 963e 5ac0 8dbd
00000260: 69fb 93bf a63e 76be 1273 16be b5a5 d1be
00000270: 5578 5bbf 159d c7bf e03d f1bf 8c9d 3cbe
00000280: f51b 46bd e7be 063f 95a6 9abf a3aa adbf
00000290: d23f 71bf 0f7c b6bf 7aa7 923e 46c2 f2bf
000002a0: b6eb 1b3f f0a7 6d3e 365f a7be 29ff 0ebf
000002b0: e97e 69bf b169 33be 4eef 6dbf dc1f e3bf
000002c0: 4580 cdbe 1528 89bf 51cd f13d 5aad 5bbd
000002d0: eb93 ccbd 6c07 09bf c1c7 a4bf f23a acbd
000002e0: 159c 223d f07a 1cbf 663b f93e 78ac b9bd
000002f0: 33f7 213e 966a e6be 57b8 cd3e 6639 953e
00000300: d58e e8be dc9c b53e 3e4d 173e 5b4b d2be
00000310: 4758 14bf d7f8 f7be d9e4 6fbf f6d2 153d
00000320: 6bd8 c2be 99e0 27bf 2217 c4bf 9392 2b3f
00000330: d96c 97bf 8b22 50be 3897 edbd 96a0 5dbf
00000340: e406 1cbf afcd bf3d 8d6b a73d 2c2f bebf
00000350: ab59 843d e208 913e 49fc debe 8aec 0cbf
00000360: d4b6 533d d090 c9be cae3 14be 3c84 ec3e
00000370: 8a81 6ebe 2cc5 62be 76e8 033f 7e6c 93be
00000380: b47c 683d
0.0962807 -0.18044919 -0.3957241 -0.12240013 -2.0209374 0.12608863 -1.5417871 0.64986604
0.051142927 -0.47324848 -0.742681 -1.1478956 0.81398207 -0.9774835 -0.021503992 -0.2550409
-0.13300008 -1.1916497 -0.12149431 -0.39305532 -1.4672529 -0.43843794 0.19222619 0.19407298
-0.19976689 -0.34674403 -0.40857485 -0.6360498 -0.2454322 -0.11893953 -0.3865324 -0.20105097
0.31309676 -0.25665617 0.40616453 -0.2366692 -0.4910981 -0.25586674 0.46179035 -1.1378187
0.18828253 0.051372267 -0.0074793147 -0.09331116 -0.72317517 -0.2736908 -0.41601115 -1.186523
-0.5137989 0.18062598 -0.10718292 -1.3429967 -1.3366008 0.44169512 -1.508625 0.84312457
-0.2663995 -0.8279068 -0.96204686 -0.11206295 -0.5001902 -2.3947885 -0.73832345 0.20414999
0.45875183 -0.9130499 -0.08239014 0.499027 -0.18086089 -0.13904914 -0.4164681 -0.4317814
-0.5008116 -0.08966043 -0.029244024 0.15667823 -1.3780595 -1.7711035 -1.0852698 0.24437372
-0.9122283 -1.1757933 -1.5038607 0.23842746 -0.6740057 0.065313205 -0.09862783 -0.453972
-1.2952653 -0.094940245 -0.00048496842 -0.9415869 -0.90159404 0.31146055 0.2568478 -0.55682665
0.076810546 0.35502973 -0.5300976 0.4035517 0.002585813 -0.7794053 -0.2294027 -0.9994813
-2.7374465 -0.8192451 0.15515321 -0.5264982 -0.5280478 -1.3889008 -0.23142333 -0.56414247
-0.32098794 -0.88024 -0.37744442 -1.6671406 -0.03745112 0.7893509 0.1934106 -0.92107964
1.2881994 0.08790868 0.33255482 -0.09579005 0.26612714 0.23686951 -0.07616889 -0.35907316
-1.2937961 0.6686444 -1.1435236 -2.3818922 -1.7556654 -1.518216 -1.7852248 0.13026047
-0.71573204 0.11668468 -1.8879321 -0.46038422 0.0823955 -0.03344066 0.0731973 0.59505934
0.5180134 0.112188615 -2.1762347 0.0021536562 -0.40169266 -0.5648352 0.29329222 -0.06921454
-1.1561099 -0.24047336 -0.14692333 -0.40946737 -0.8573049 -1.5594813 -1.8847008 -0.18419474
-0.048366506 0.52635044 -1.2082087 -1.3567699 -0.9423801 -1.425661 0.286434 -1.8965538
0.6090654 0.23208594 -0.32689828 -0.55858094 -0.91209275 -0.17520787 -0.92943275 -1.7744098
-0.40136924 -1.0715357 0.11806739 -0.053632118 -0.099891506 -0.5352695 -1.287346 -0.084096804
0.039699633 -0.6112509 0.4867813 -0.09066099 0.15816955 -0.45003194 0.40179703 0.29145354
-0.45421472 0.35471237 0.1477556 -0.41073117 -0.579472 -0.48432037 -0.9370857 0.03657814
-0.3805574 -0.65577084 -1.531956 0.6702053 -1.1830093 -0.20325677 -0.11601108 -0.8657316
-0.60948014 0.09365403 0.081748106 -1.4858146 0.06462415 0.2832709 -0.43551853 -0.5504843
0.05168803 -0.39368296 -0.1454002 0.46194637 -0.23291603 -0.22145528 0.5152658 -0.2879371
0.05675955

net.fc1.bias f4 [15]
00000000: a8af 1ebe 3ced 993f b3e0 febe 33cd b3be
00000010: 6b06 9b3f 1115 993e cf16 8b3f cbb7 2dbf
00000020: 583a 9f3d 73a8 473e 8b12 f7be a0c6 563f
00000030: 1987 b33f 7c8d 04be 12df d03e
-0.15496695 1.2025523 -0.49780807 -0.35117492 1.2111334 0.29898885 1.0866336 -0.6785857
0.077748 0.19497852 -0.48256335 0.8389683 1.4025604 -0.12944597 0.4079519

net.fc2.weight f4 [15, 15]
00000000: b9fb 853f f946 f33e 8e28 5e3f 3abe 8c3f
00000010: 8053 d8ba fd56 753f d396 883f fb95 863f
00000020: b5c3 1cbd ee7c b73d 97b6 9d3f aefa a53e
00000030: fc2a a1be 1a41 9d3f 92be 9ebf 677e cf3d
00000040: 03e4 9fbe 2c49 d8be dfbe c8be 6ac1 703e
00000050: 7efd e63d c09e 8f3e 04f3 96bd 9413 41be
00000060: 9475 633e 1fc4 f0be d9a1 51bf 0a8e ab3d
00000070: 4fb5 a63d 0b6a eb3e 8cad 08bf 3709 cf3e
00000080: 7cfd 3f3d 1c1c 803e 4665 eebd 7829 083f
00000090: 7fde 113f 532b 92bf 614e 71be 9450 6dbd
000000a0: 6a70 113f a7d4 d9bf 0d99 10be cbc2 90bd
000000b0: 8ab2 2abd b46f df3e b19a 093e 832a 8f3f
000000c0: 6f48 b03f bd4e f33e f0dd 4a3f 5f67 cd3e
000000d0: 55f6 583f 4bac 583e e5a3 4abe 85d0 533f
000000e0: a142 133f 86d9 b1bd b8a6 8d3f 0bdc 8ebe
000000f0: 5842 153f a560 3c3f 67a6 453f 5d99 e13f
00000100: 09a0 3bbe 955b 203e 7038 d23f 726d 273f
00000110: af42 063e 9c7b f6be a36e b93f be2e 263f
00000120: 410c a1be f43c c63f 0a20 9fbf 4949 adbe
00000130: 4ae8 463e 4753 28be f8ec d13e 08df 983e
00000140: 10dd 5b3f 1173 c0be 2e16 43be 068f 91be
00000150: 65f6 98bf 44d7 f53e 0219 263e efb6 ce3d
00000160: 41a5 ab3e 59a6 78bd 3b03 153f 852f 203f
00000170: 0831 2c3f 999d 2a3f 5961 9a3e b245 573f
00000180: d89e c93e ce30 893f baa0 6e3e 47b0 a6be
00000190: 90eb 6e3f 66cd eb3e c815 3fbf ce2d 9e3f
000001a0: e12b 123e d83b 6d3d 3c5c cfbf 4865 a0bd
000001b0: 52b1 2b3e 495b 24bf 72ee 0f3a b509 a6bd
000001c0: 8a10 05be 6d79 f93e 660d c4be 4e48 c03e
000001d0: 0c38 a7be 16fe 8ebf c177 dabd a309 c1be
000001e0: e159 123f abf7 623e f2e9 993e fe66 883f
000001f0: 95dd f33d d740 893f 6203 873e bd37 c13b
00000200: 89bd e53e f3ab 293e 37b0 a93f af17 103d
00000210: 8195 a23d 70cb 283f 5f7b 34be 7c55 32bf
00000220: cb9c 923e 020f 523d 595c ea3e a8d4 2a3f
00000230: 5c11 8a3f b168 f9bd a461 8cbf 1ce3 b3be
00000240: 1a39 10bf 4c31 f23b f73c 8abe 14fd ff3e
00000250: c927 5c3f e5af 89bd 0f5b 983f 5a97 9a3e
00000260: e96a 623f 682e 473f 426f 88be 9bc8 773d
00000270: c1ff b9be a737 113f a346 2e3e a0ec 10be
00000280: e87a 623f df84 233f 2f42 dbbe f0bd e13e
00000290: e133 0dbf e0cd 82bd b790 cb3e 0444 ae3f
000002a0: 8971 4f3f e29c 5cbf 7173 a63f 24e5 b3be
000002b0: 7538 2fbe 16d5 92bc 38d7 13bc e5aa 183f
000002c0: 4a3d b1bf b262 ecbe 35e6 683f 8073 353d
000002d0: 316f b3be 6c4b 94be 29f9 ae3e 3562 943f
000002e0: 7f71 053d 70a9 713f 4aa1 1abb e7ce 243f
000002f0: 3aee 0a3d 9cee 633d 5c98 bc3e a6ed 083d
00000300: 3847 bbbd 199a 8b3f 324d 223e 88f0 c03d
00000310: b66e aa3e 0ba5 273f 7f2d ad3f 553f a83e
00000320: d27c d53f 286f a33e 2186 fe3e 91fb 153e
00000330: 4edd 8e3d c853 6b3f c358 373e 3d75 1b3e
00000340: 29eb 9e3f ff01 0a3e 10ab 893e 24b5 8bbe
00000350: fbff 8abe 55c8 593d 0a47 183f 8772 813f
00000360: f406 7bbf fd34 4a3e 10aa 6dbf 32f9 6abe
00000370: 0a37 8dbe ad42 12bf d0b8 153e a3b8 7dbd
00000380: 2506 ee3e
1.0467445 0.47515085 0.8678063 1.0995553 -0.0016504377 0.9583586 1.0671028 1.051452
-0.03827258 0.08959375 1.2321347 0.32417816 -0.31478107 1.2285492 -1.2401907 0.10131531
-0.31228647 -0.42243326 -0.39208123 0.23511282 0.112788185 0.28050804 -0.0737057 -0.18855125
0.22212821 -0.4702463 -0.81887585 0.08376701 0.081400506 0.45979342 -0.5338981 0.40436718
0.0468726 0.25021446 -0.1164041 0.53188276 0.5698013 -1.1419472 -0.23565055 -0.057938173
0.56812155 -1.7018021 -0.14120884 -0.07068404 -0.041674174 0.4363991 0.13437916 1.1184849
1.3772105 0.4752101 0.792449 0.40117928 0.8475087 0.21159475 -0.19789083 0.8274005
0.5752354 -0.086840674 1.1066504 -0.27902254 0.5830436 0.7358497 0.77207035 1.7624928
-0.18322767 0.15659936 1.6423473 0.65401375 0.13111375 -0.4814118 1.4486889 0.6491507
-0.3145466 1.5487351 -1.2431653 -0.33844975 0.19424549 -0.16438018 0.41001105 0.2985766
0.8588419 -0.3758779 -0.1905143 -0.2842943 -1.1950194 0.48015797 0.16220477 0.100934856
0.33524516 -0.060705516 0.58208054 0.6257251 0.67262316 0.66646725 0.30152395 0.8409072
0.39379 1.0718019 0.233035 -0.32556364 0.9332819 0.46055144 -0.7464261 1.2357728
0.14274551 0.0579184 -1.6200023 -0.07831818 0.16766861 -0.6420179 0.0005490548 -0.0810732
-0.1299459 0.48725453 -0.38291472 0.37555164 -0.32659948 -1.1171291 -0.106673725 -0.37702665
0.57168394 0.2216479 0.300613 1.0656431 0.11907498 1.0722913 0.26369768 0.005896537
0.44871166 0.165695 1.3256902 0.035178836 0.07938672 0.6593542 -0.17625187 -0.6966169
0.2863525 0.051283844 0.4577358 0.6673074 1.0786548 -0.121781714 -1.0967298 -0.35134208
-0.5633713 0.0073911306 -0.26999637 0.4999777 0.8599821 -0.06723002 1.1902789 0.30193597
0.8844438 0.77805185 -0.26647383 0.060494047 -0.36327937 0.56725544 0.17019133 -0.14152765
0.8846879 0.6387462 -0.42823932 0.44090223 -0.55157286 -0.06386924 0.39758846 1.3614507
0.81032616 -0.86176884 1.300398 -0.35135758 -0.1711138 -0.017923873 -0.00902348 0.59635764
-1.3846829 -0.4616905 0.9097627 0.044299603 -0.3504577 -0.28963792 0.3417447 1.159247
0.03257894 0.94399166 -0.002359467 0.6437821 0.033918597 0.055647478 0.3683499 0.033429764
-0.09144443 1.0906402 0.1584976 0.09420878 0.3328759 0.6548621 1.3529509 0.32860819
1.6678717 0.31920743 0.49711707 0.14646746 0.06975804 0.91924715 0.17904954 0.15181442
1.2415515 0.13477324 0.26888323 -0.27286637 -0.27148423 0.053169567 0.59483397 1.0113076
-0.98057485 0.19746776 -0.9283762 -0.22946623 -0.27581054 -0.5713299 0.14621282 -0.06194366
0.46489063

net.fc2.bias f4 [15]
00000000: 8f42 dcbf 28f0 0cbd fb3b 2a3f 3ff4 07c0
00000010: 2bae efbf b313 e33e ce96 debf 9e1e fe3e
00000020: dd56 c7bf 831b 243f acde eebf 8d7e 92be
00000030: 22d9 55bf 7ce3 9dbf a103 e83c
-1.7207812 -0.03440872 0.6649777 -2.1242826 -1.8725027 0.44350967 -1.7389772 0.49632734
-1.5573384 0.6410448 -1.8661704 -0.28612176 -0.83534443 -1.2335048 0.028322043

net.fc3.weight f4 [15, 15]
00000000: c79d a63e 8a76 e0bd 1f78 6a3e a39e db3d
00000010: 7f30 fc3e d95b 1e3e 06b3 723e 6864 403d
00000020: ea8c 13bd d193 fb3d 3f86 903f 4fc2 0a3d
00000030: 73b0 0d3f 45a8 59bf 236d f73d 744c cbbe
00000040: 217a 2d3d b984 303e 5dba 98be a422 71bf
00000050: 7482 a4be 662f 11be d089 bcbf f5f1 38be
00000060: 95c0 fabd a029 d2be 3d21 223f fe8a c03d
00000070: 16af febd e2f1 bb3e bf47 493f 046e e3be
00000080: 3487 7d3e 0665 9a3d 4261 7d3f 3401 15bf
00000090: 70df 823e af2e f2bd 33c5 813e b69c e03e
000000a0: 6df2 343f c4ed 553e fd1f d6be 07ed 8dbe
000000b0: 5a55 80be 8a1d 2abc 90b1 1fbf a91d efbd
000000c0: 061b 513c eca5 293d ad76 1f3d 507e 01bf
000000d0: 4e46 13bf 230a 99be d50c a53e b7b4 4bbe
000000e0: 76e5 0f3c 3a68 eabd 514b 0ebe 3e17 b7bd
000000f0: 8096 733d 1dfe 99bf 1a22 8e3e 6727 81bc
00000100: 48e8 8e3d 95e1 0fbe d32e 8d3c bc89 183f
00000110: 375d b6be c4c1 d7be 8ec5 9a3d 69bd c83e
00000120: 1e11 96bd 3356 033d 9b4e 11bf a1a7 dd3d
00000130: 6c7f 96bc 96cf 463e 6143 323f 20ea 3fbe
00000140: 7ff4 b53e c500 87be ff73 493d db36 a4bd
00000150: 4361 6d3d 595b ea3e 2ff5 563e 8182 0a3f
00000160: 578a 3cbf 1287 7c3e 9efb 53bd 57bd 30be
00000170: fa16 e93e a23f 42bd 192b 82bc afe9 2fbf
00000180: eeb5 9e3d 31ef 243f f20a 48be c69d c7bd
00000190: 763e 143c b64b 163f 99ee af3e 6fb7 a9bd
000001a0: 9583 9f3e 7fd7 4abf ea4c 393e 4fe1 a73e
000001b0: d674 8c3e a97e 37bd eb39 1dbf efc5 a3bd
000001c0: 63bb 46be a8d3 a33e 2c73 d1bd c60e f7bd
000001d0: 74ea 963e 2ad4 b73d 8aa6 2dbe d873 d33e
000001e0: e2b3 8cbd 7f63 b43d 3938 f33e 6a58 9cbe
000001f0: 18e0 4c3e 2524 27c0 4642 0abf 64c5 89bf
00000200: 6110 77be 5c09 5b3d 5568 29bf eca2 61be
00000210: cf1e 86bd a2c7 2a3a 9254 e9be 9435 be3e
00000220: e36a eebd ae39 c23d f81f 573f 8350 f73e
00000230: e10d 663e c484 783e 7e3c 1bbe 1b40 16bd
00000240: 394b 2ebc d4bb 543f 8eb8 123f fe4d 913d
00000250: d2cc 0d3e b8e2 e03d 86ac 35be cd55 3c3e
00000260: d0d6 73bd 0621 ba3e 3512 42bc ced6 1f3e
00000270: 48ac bfbe d46a b7bd 9d66 5a3e 3d6d ad3c
00000280: 9c3d 3f3e 11b5 233f a879 9ebd 1977 d8be
00000290: 230a 013e 8387 9d3d e686 81bd 6f14 953e
000002a0: 81b0 8e3f 5e5f 41bc 0ac2 093f e5a4 6c3d
000002b0: 3909 373e cc3d 30be 5480 72be d862 6c3e
000002c0: 3142 ad3e abe6 7f3e d5ed 313e ea74 08bc
000002d0: 382a 673e 6a65 0e3e cfee 373e 39f5 c73d
000002e0: 835d e2bd 8ef5 2c3e ef5a 04bb 369e 3d3e
000002f0: 3e35 e2be ddab 15be 14d3 e73e d7be 8b3e
00000300: 7c74 873f b771 b13e c72e 5f3d 58fa ebbb
00000310: f8c4 6cbd 77d8 2f3e fbba 0abd 14e2 d53d
00000320: 0d78 9b3e 4a48 963e e77f 973e 319e efbe
00000330: 55ea 553e 2b38 a83e 2bc9 d0be 0912 3a3f
00000340: 3025 673e 2739 733e 72d5 613e dd73 74bd
00000350: 0b44 50be 89b0 8b3e 50cd 04be efb9 f3bf
00000360: 603b 37be 6b38 043e a3fd 3dbf c088 37be
00000370: 5315 5f3e e5d2 ad3e a5d0 0fbd f04f 6a3e
00000380: 35aa a9bd
0.3254225 -0.109601095 0.22897385 0.10723617 0.4925575 0.15464725 0.23701105 0.046970755
-0.036023058 0.12284053 1.1290969 0.033876713 0.55347365 -0.85022384 0.12081363 -0.39706767
0.0423528 0.1723813 -0.29829684 -0.9419348 -0.32130778 -0.14178237 -1.4729557 -0.1806105
-0.12243763 -0.41047382 0.6333197 0.09401511 -0.12435739 0.3670798 0.786251 -0.44419873
0.24758607 0.075388 0.9897653 -0.5820496 0.25561094 -0.118253104 0.25345764 0.4386956
0.7068241 0.20891482 -0.4182128 -0.277199 -0.25065118 -0.010383019 -0.62380314 -0.11675579
0.012762791 0.041418 0.038931537 -0.5058336 -0.5752915 -0.29890546 0.32236353 -0.19893156
0.008782735 -0.11445661 -0.13895918 -0.0893998 0.0594697 -1.2030674 0.27760392 -0.015765859
0.06977898 -0.14050896 0.017234242 0.59585166 -0.35617992 -0.4214002 0.07557212 0.39207008
-0.073274836 0.032064628 -0.5676057 0.10822988 -0.018371306 0.19415125 0.6963406 -0.18741655
0.35538098 -0.26367775 0.049182888 -0.08018275 0.057954084 0.45772818 0.20991968 0.54105383
-0.7364859 0.246609 -0.051753633 -0.17259727 0.45525342 -0.047423966 -0.015889691 -0.6871595
0.07749544 0.6442748 -0.19535425 -0.0974689 0.009048095 0.58709276 0.34361723 -0.0828694
0.31155077 -0.7923507 0.18095747 0.32789084 0.2743289 -0.044798527 -0.614165 -0.07996737
-0.1940742 0.31997418 -0.102270454 -0.12063365 0.2947575 0.08976014 -0.16958061 0.4129932
-0.068702474 0.0880804 0.47503832 -0.30536205 0.2000736 -2.611581 -0.54007375 -1.0763364
-0.24127342 0.053475723 -0.66174823 -0.22034806 -0.06548845 0.0006514733 -0.45572335 0.37150252
-0.11641481 0.09483658 0.84033155 0.48303613 0.22466232 0.24269396 -0.15159795 -0.03668223
-0.010638052 0.830991 0.5731286 0.07094954 0.13847664 0.10980743 -0.17741594 0.18392105
-0.059531033 0.3635332 -0.011845161 0.15609285 -0.37436128 -0.08955923 0.21328206 0.021170253
0.18675846 0.6394816 -0.07738048 -0.42278364 0.12601523 0.076918624 -0.06324558 0.29117152
1.1147615 -0.011802522 0.53811705 0.057774443 0.17874612 -0.17211074 -0.23681766 0.23084581
0.33839563 0.24990337 0.17375882 -0.008328656 0.22574699 0.13905874 0.17962192 0.097635694
-0.11052992 0.16890547 -0.0020195802 0.18517384 -0.44181246 -0.14616342 0.45278227 0.27294037
1.0582423 0.3465707 0.05448797 -0.007201474 -0.05780503 0.17172419 -0.033869725 0.104435116
0.3036503 0.29352027 0.2958977 -0.46800378 0.20890172 0.32855353 -0.4077848 0.7268377
0.2257278 0.2375227 0.22054079 -0.05968081 -0.20338456 0.27283123 -0.12968946 -1.9041117
-0.17893744 0.12912147 -0.74215144 -0.1792326 0.21785478 0.33949962 -0.03511109 0.22882056
-0.082844175

net.fc3.bias f4 [15]
00000000: 419d 2fbf 7001 043f d3cb 14bf a12e 753f
00000010: 254b 853f 68d9 65bf c70a 88bf cc31 3ebf
00000020: 1d34 5e3f 3f47 91bf b1c1 45bf 5b2c a5bf
00000030: defe 85bf b11f 92bf 9601 95bc
-0.68599325 0.51564693 -0.5812351 0.95774275 1.0413557 -0.8978486 -1.0628289 -0.74294734
0.8679827 -1.1349868 -0.77248675 -1.2904161 -1.0468404 -1.1415921 -0.018189233

net.fc4.weight f4 [2, 15]
00000000: f162 cbbd 9d26 943e bcc6 19be a82e c3be
00000010: a04b 4cbf 2358 dbbc 2809 093f 0e72 32bd
00000020: d01b d63e 11bb 26be 4c09 063d c4e0 0bbd
00000030: ee77 4f3d 1a54 073d cb1f 323e 654a c83d
00000040: 8307 39be 79c9 4b3d 4cd0 e3be c84b 4d3f
00000050: 8c23 8f3d 4d11 8b3d 975b 963e fdd8 a53e
00000060: 4641 503c b5bf 4fbd d4f3 debd cb04 913d
00000070: 2e25 b23d 83e5 6a3e
-0.09930981 0.2893571 -0.15017217 -0.38121533 -0.79802895 -0.026775425 0.53529596 -0.043565802
0.41818094 -0.16282298 0.03272371 -0.0341499 0.050651483 0.03303919 0.1739494 0.09779815
-0.18069272 0.049752686 -0.44494855 0.8019376 0.06989202 0.06790409 0.29366753 0.3239211
0.012710875 -0.050719935 -0.1088635 0.07080992 0.08698498 0.22939114

net.fc4.bias f4 [2]
00000000: f431 0d3f 7bc2 d6be
0.5515435 -0.41945252
